best_model.pt (torch, 344930 bytes, 81 tensors)

business_tower.num_proj.0.weight f4 [32, 21]
000000 16 ea 05 3e 8f 8b 6b 3e a2 82 90 bd f1 78 33 3e
       0.13077578 0.23002456 -0.07056166 0.17526604
000010 b5 2e 7c bd ac 00 5d 3c 8a 6f 8c bd 4b ec 19 3e
       -0.06156798 0.01348893 -0.06857212 0.15031545
000020 2a f1 1a 3e b6 04 f4 bd 93 0b 32 3e 58 ce 26 3d
       0.1513106 -0.11914961 0.17387228 0.04072413
000030 59 06 2b 3e e5 ba ef 3c ea de cd 3d 16 f5 c8 bc
       0.1670164 0.029263923 0.10052283 -0.024530929
000040 b7 ff 28 3e 77 49 4b 3d 38 ef c4 bd f3 2e 94 3d
       0.16503797 0.04963061 -0.0961594 0.07235517
000050 e5 52 c9 bd 13 57 40 3c 3b f4 17 be 17 29 16 3e
       -0.09830264 0.01173951 -0.1483926 0.14664112
000060 4f b4 1c be f6 ee a2 bd ae ba 40 bd a7 14 0e be
       -0.15303157 -0.079557344 -0.04705303 -0.13875066
000070 47 2d 0f 3c c1 32 2f be 14 8a 1c 3e 56 b8 2f be
       0.008738822 -0.17109205 0.15287048 -0.17160162
000080 45 6e 22 3e 29 d4 f7 3c bd 93 be bd ce fb 04 3e
       0.15862377 0.030252533 -0.093055226 0.12986681
000090 6b d0 2c 3d a3 26 28 3e 3b bb df 3b e0 a5 88 bd
       0.04219095 0.16420989 0.0068277395 -0.06672263
0000a0 13 7d f0 3c 5f 75 8b bd 1b 9e 96 3d 3e 9b 70 3e
       0.029356515 -0.06809496 0.07354375 0.2349672
0000b0 00 10 0f 3e e1 e1 ed bd 50 a4 c2 3d 56 fc 1e 3d
       0.13970947 -0.116153486 0.09503996 0.038814865
0000c0 69 30 fc 3d 8c f6 0f be 75 3e 85 be 25 80 24 bd
       0.12313921 -0.14058894 -0.26024213 -0.04016127
0000d0 df 7b 24 be 74 78 4e 3e 6b c7 93 3d 97 06 f5 3d
       -0.16062878 0.20163137 0.0721577 0.119641475
0000e0 09 e8 c6 3d 35 be 05 3d 5e 6a 4b 3e 77 05 03 be
       0.09712226 0.0326521 0.19864795 -0.12795053
0000f0 a0 3f a2 3c 60 0c 00 be 97 1a c9 3d 6a 12 c4 bd
       0.01980573 -0.1250472 0.09819525 -0.09573825
000100 76 ca fc 3d d1 1b 18 bd c7 43 1a 3e 1e 0e 04 be
       0.12343304 -0.037135903 0.15064918 -0.1289601
000110 44 c8 04 be bc 23 d4 bd 20 dc 4e 3e b5 4c 8b 3d
       -0.1296702 -0.10358378 0.20201159 0.0680174
000120 db 54 5b 3e fc c8 2a be fc 97 50 be 15 b4 2f be
       0.21419089 -0.16678232 -0.20370477 -0.1715854
000130 c3 68 09 be eb ea b6 3d 22 38 8a 3d 7c f4 38 3e
       -0.1341887 0.08931526 0.06748988 0.18062013
000140 3c 60 cb bd 76 d0 13 be 93 a8 11 3e 06 bc 9c bd
       -0.099304646 -0.1443499 0.14224462 -0.0765305
000150 e3 79 ed 3d c3 8e 18 bc be 2d eb 3d 8c 6d 17 be
       0.11595514 -0.009311381 0.11483334 -0.14787883
000160 65 0f 02 be 01 d8 89 3d 11 23 56 3d 4a ea 00 bd
       -0.12701185 0.067306526 0.052279536 -0.031473435
000170 e1 c9 fe 3d a8 50 1d 3e 08 e3 18 be 9d 87 01 be
       0.12440849 0.15362799 -0.14930356 -0.12649389
000180 96 12 3c 3e 84 b8 95 bd e8 1b b7 bd 0d ae 6e be
       0.18366465 -0.07310584 -0.089408696 -0.23308583
000190 5f f3 10 be 78 c6 34 3d 16 07 41 bd 8d 48 23 be
       -0.14155339 0.044134587 -0.0471259 -0.15945645
0001a0 5d 1c ab bb 44 1a e1 bd f5 87 6a be 0f 04 cb bd
       -0.005221887 -0.10991338 -0.22903426 -0.099128835
0001b0 61 17 47 be a2 0c ec bd 76 eb 69 3e 6b 7f ca 3c
       -0.19442512 -0.11525847 0.22843727 0.02471896
0001c0 08 84 3a 3d a7 f8 39 be 2c ce 28 be 2d 97 7b bd
       0.04553607 -0.1816126 -0.16484898 -0.06142347
0001d0 ab 48 1d 3d 96 06 44 be 77 a6 c5 bd bf 2f 07 be
       0.03839938 -0.19143137 -0.09650891 -0.13201807
0001e0 4d 4b a1 3a 32 3e 9d bd cf 2c d5 bc de 84 12 be
       0.0012305767 -0.076778784 -0.026022343 -0.14308497
0001f0 d5 b8 15 be f1 11 e1 bd 56 92 42 bd f2 00 58 be
       -0.14621289 -0.1098975 -0.047502838 -0.2109411
000200 32 b7 28 3e 8a 1c e5 bc 99 bb 3d 3e a4 61 73 3d
       0.16476133 -0.02796771 0.18528594 0.05941929
000210 9a 74 37 be ac c1 06 3e dc 77 83 bd c5 4f a2 bd
       -0.17915574 0.13159817 -0.06419346 -0.07925371
000220 4f 43 33 be 9b de 5d be fc 15 8b 3d 37 47 7e bd
       -0.17506145 -0.21666948 0.067913026 -0.062079635
000230 2a 16 af 3d 05 4c 2e be 1d 51 2f 3e 64 ae 1c be
       0.08549149 -0.17021187 0.17120786 -0.153009
000240 fe 17 20 bd 91 49 ea 3c ec f9 d3 3d b4 bd 0b 3e
       -0.03908538 0.028599532 0.10350403 0.13646585
000250 89 ba 81 3e 8a d0 45 be 08 0f 72 3d a7 e5 db bd
       0.25337628 -0.19317833 0.059096366 -0.10737162
000260 28 0b 4e bd 4d c1 06 be 14 68 4b 3e ae 76 2d be
       -0.05030361 -0.13159676 0.19863921 -0.16939804
000270 1f 6e 00 3e 10 a9 97 3d e6 59 c1 3d 43 ec ca bd
       0.12542008 0.07405293 0.09440975 -0.099083446
000280 ff c1 60 3e bc 27 93 3d d8 c9 62 3d 5c 7a 26 be
       0.21949004 0.07185313 0.055368274 -0.16257614
000290 72 bd 03 3e 43 11 53 bc c9 42 7a bd ed bd 50 3e
       0.12865236 -0.0128825335 -0.061098848 0.20384951
0002a0 ad ec 41 3c 9f 1d 98 bd 2e 88 d0 bd 7b f7 93 bc
       0.011836213 -0.07427525 -0.10182224 -0.018062344
0002b0 a1 79 d9 3d e2 c0 55 bd 1a 95 c5 bd 83 4b 51 bd
       0.10618902 -0.0521859 -0.096475795 -0.051097404
0002c0 d7 b5 20 be 1a 28 92 3d 4d f7 24 3e ca 51 62 be
       -0.15694366 0.07136555 0.16109963 -0.22101513
0002d0 8e bd 23 3d b2 12 d0 3d 88 73 e3 3c 75 7f c4 bd
       0.039975695 0.10159816 0.02776505 -0.09594623
0002e0 c8 d4 c8 3d 51 79 ec 3d 55 04 8c 3d 5b 23 27 bd
       0.0980621 0.11546577 0.06836764 -0.040805202
0002f0 c6 76 95 bd bf c7 f9 3c 65 6a cc 3a f6 7e 90 bd
       -0.07298045 0.030490754 0.0015595673 -0.07055466
000300 f4 74 0e 3e 3b 27 25 3e d7 46 8e bc df a9 75 bd
       0.13911802 0.16128246 -0.017367763 -0.059976455
000310 72 58 bf 3c f5 71 16 bd d6 ca 9b 3d 84 42 44 3d
       0.023357604 -0.03672977 0.07607047 0.047914997
000320 1b 76 53 be f2 b4 b2 bd 41 60 26 3e 92 eb 8f 3d
       -0.20650522 -0.08725919 0.16247655 0.07027353
000330 7d 1a 0c bd f6 fa 01 be 33 36 17 be 98 e0 56 be
       -0.03420495 -0.1269339 -0.14766769 -0.20984113
000340 bb 6e b1 bd f4 fc 76 3d 76 2f f4 3d e3 22 18 3e
       -0.08663698 0.06029983 0.11923115 0.14857058
000350 b6 a8 5c be 76 02 09 be 9d f7 8f bd f1 6d 4f 3e
       -0.21548733 -0.13379845 -0.0702965 0.20256783
000360 fd 17 85 3d 8c 23 63 bd 58 2c 8c 3d dc 8a 7b bd
       0.06498716 -0.055453822 0.068443954 -0.061411723
000370 b3 69 0a be 84 36 1e 3e 5c ba cf bd ae c7 ed bc
       -0.13516884 0.15450484 -0.10142967 -0.029025879
000380 00 7c 56 be c3 42 28 3e 28 f4 32 3e eb 40 c0 3d
       -0.2094574 0.16431718 0.1747595 0.09387382
000390 e0 ab 18 be 09 a4 41 be e7 56 30 be 0b 15 09 3e
       -0.14909315 -0.1891023 -0.1722065 0.13386934
0003a0 81 b0 21 3e aa 1d 3e 3e 52 3e bc 3d e4 4d 0f 3d
       0.15789987 0.18566003 0.09191574 0.03498639
0003b0 30 82 98 bc a7 75 20 be c9 60 3d be 24 3b 58 be
       -0.018616766 -0.15669881 -0.18493952 -0.2111631
0003c0 38 a3 c4 3d 01 f6 e1 bd 17 e0 cc bc 87 c2 df bd
       0.09601444 -0.1103325 -0.025009198 -0.10925775
0003d0 59 34 72 bc 31 7e 0e be 0f d2 15 be c9 2a bb 3d
       -0.0147829885 -0.13915326 -0.14630912 0.0913902
0003e0 cd f1 3d bd c1 3b 04 3e 87 07 33 bd bb 48 1b be
       -0.046373177 0.1291342 -0.04370835 -0.15164463
0003f0 26 ba 39 bd 51 d2 3d bd 0d d8 b3 bd 2f 79 42 be
       -0.04534354 -0.04634315 -0.08781443 -0.1899154

business_tower.num_proj.0.bias f4 [32]
000000 40 8b 66 3e 2c 04 be 3d fb 65 f4 bd a6 20 38 3e
       0.22514057 0.092781395 -0.11933514 0.17981204
000010 3e f4 88 bd 90 e5 2f bd ac 23 4c be 1d e1 0f 3c
       -0.066872105 -0.042943537 -0.19935483 0.0087816985
000020 b8 e1 0a 3e 2e df 98 3b 80 84 e9 bd e9 7a b6 3d
       0.13562667 0.004665277 -0.114022255 0.08910162
000030 2c 0d cd bd 52 c1 66 3e 17 1e 40 be a9 57 a2 bd
       -0.10012278 0.22534683 -0.18761478 -0.07926876
000040 ff 69 7a be fb bf 92 bd a4 4c b2 3d 1e 99 42 3e
       -0.24454497 -0.071655236 0.08706024 0.19003722
000050 0f cb 7f 3b d8 89 43 3e 56 83 1a 3d 3f 4d e1 3d
       0.0039030944 0.19095552 0.037722908 0.11001062
000060 b4 d7 2c 3e a7 33 3b 3e fd 73 a2 bd e5 43 2c 3e
       0.16879159 0.18281423 -0.07932279 0.16822775
000070 cd cd 07 3e 40 bf cb bd 53 92 d3 bd 58 f1 36 be
       0.132621 -0.099485874 -0.103306435 -0.17865503

business_tower.num_proj.1.weight f4 [32]
000000 5e 13 81 3f 39 04 7b 3f 37 25 84 3f 79 1f 82 3f
       1.0084035 0.9805332 1.0323857 1.0165855
000010 66 cd 79 3f de 3b 80 3f a2 32 80 3f 89 b4 84 3f
       0.9757904 1.001827 1.0015452 1.0367595
000020 fd 06 78 3f 57 87 7b 3f 44 25 82 3f 9e 31 82 3f
       0.96885663 0.9825339 1.0167623 1.0171392
000030 27 82 77 3f 9e 1a 83 3f 9d fd 80 3f 0c 39 7f 3f
       0.9668297 1.0242498 1.0077397 0.9969642
000040 49 bf 79 3f 3f 9d 83 3f 01 f9 83 3f 17 e7 7d 3f
       0.97557503 1.0282363 1.0310365 0.9918074
000050 b0 5e 76 3f 59 f0 79 3f 52 4d 80 3f 98 c8 7e 3f
       0.9623823 0.97632366 1.0023596 0.9952483
000060 89 14 80 3f 39 b6 81 3f a8 8d 84 3f 1c f7 78 3f
       1.0006267 1.0133735 1.035573 0.9725206
000070 55 a0 7f 3f 5d 84 7e 3f 79 70 7f 3f 69 ef 81 3f
       0.9985402 0.9942072 0.99780995 1.0151187

business_tower.num_proj.1.bias f4 [32]
000000 30 45 0c 3c 9d 4b 52 bb e8 b9 24 3d 72 51 dd 3b
       0.008561417 -0.0032088526 0.040216357 0.006754094
000010 b3 1a 94 bc 93 2e 91 3c 06 46 5a 3c a8 64 34 3d
       -0.018079137 0.017722404 0.013322359 0.044041306
000020 e9 54 87 bc a7 be 72 bc 38 f2 82 3c cf f1 8e 3c
       -0.01651998 -0.014815963 0.01598464 0.017449288
000030 b9 f8 03 bd 3b ba 00 3d 96 b8 95 3c 8d 39 cb 3a
       -0.032219622 0.031427603 0.018276494 0.0015504822
000040 29 e6 cd bc c7 9f db 3c 4f 83 e5 3c 31 3b 93 ba
       -0.025134163 0.026809586 0.028016714 -0.001123285
000050 77 44 fd bc 2d 81 2e bc 01 bc a0 3b 75 7e cc bb
       -0.030916436 -0.010650915 0.0049052243 -0.006240661
000060 43 55 5e 3b a7 1c 26 3c 57 8f 3b 3d 78 e9 b4 bc
       0.0033925332 0.010138667 0.045790996 -0.022083983
000070 57 8c 0a 3b 72 1c 11 3c 22 96 46 3c bf 65 93 3c
       0.0021140778 0.00885688 0.012120755 0.017992852

business_tower.embeddings.business_type.weight f4 [4, 32]
000000 ef cc a4 3e ba 45 e4 3e 8b d8 c2 3f 27 d3 a3 3f
       0.32187602 0.44584447 1.5222334 1.2798814
000010 62 c8 ed bd 59 58 af 3f 6f 1f f6 be 36 69 7d bf
       -0.116104856 1.3698837 -0.48070857 -0.98988664
000020 34 88 ae bf 99 60 06 3c 92 b3 cf be a1 f3 35 bf
       -1.3635316 0.008201742 -0.4056669 -0.71074873
000030 54 e6 b2 be b0 56 c2 3e 36 b3 7f 3f 6a 25 a3 3f
       -0.3494135 0.37956762 0.9988283 1.2745793
000040 3b 83 75 3f 50 e3 d3 3d c6 21 54 3f 0d d5 05 40
       0.95903367 0.10346091 0.82864034 2.0911286
000050 a6 80 4b 3f f3 ec 8e 3e fa d4 3e 3e e7 86 b5 3e
       0.79493177 0.27915153 0.18635932 0.35454485
000060 1a 8a b9 3d fe e6 de 3f 8f f8 a1 bf c5 27 c7 3e
       0.09059544 1.7414243 -1.2653979 0.3889753
000070 e3 77 af 3e e4 ab ba bf eb 18 bf bf 42 97 62 be
       0.34271154 -1.4583707 -1.4929479 -0.22128013
000080 65 1f 60 3e b8 ff 9b bd f8 1f 7a 3f 1f df a2 3f
       0.21886976 -0.07617134 0.9770503 1.2724341
000090 54 e3 8d 3e ac 2c 5e 3f 28 45 4d bf 7b 84 b7 bf
       0.277125 0.86786914 -0.8018365 -1.4337305
0000a0 a8 5c e5 3e 76 c0 07 3f 13 64 ae bf a0 94 f9 3f
       0.44797254 0.5302805 -1.362429 1.9498482
0000b0 b1 3d e1 3f d8 4f 7c bf c5 cb 9e bf 4b 0a 14 c0
       1.7596952 -0.9855933 -1.2405936 -2.3131282
0000c0 6e 74 2a 3b 5c 68 57 bf 4e 6c d3 bf d5 b9 9e 3e
       0.002600934 -0.84143615 -1.6517427 0.31001154
0000d0 f4 1c 97 3f f5 ff a2 3e a2 fa c2 be 3c 54 37 40
       1.1805711 0.31835905 -0.38081843 2.8645163
0000e0 5f 0a 52 3f 8e 52 4c 3f 0a 37 f0 3f 82 0d 1a 3f
       0.82047075 0.7981347 1.8766797 0.6017686
0000f0 70 b9 7c 3d 6f 1e cd bf 2b aa d8 be a7 60 10 3f
       0.061700284 -1.6024913 -0.42317328 0.5639748
000100 c3 77 b0 3e d6 42 46 c0 ac 90 b9 bf 66 37 b7 bf
       0.3446637 -3.0978293 -1.4497275 -1.4313781
000110 71 3f 1c bf 8a 34 83 be 54 fb 36 bf b2 ba c2 be
       -0.61034304 -0.25626022 -0.71477246 -0.38033062
000120 ea e4 04 3f df 0c 51 bf 82 3b ed be 5f 84 1a 3f
       0.51911795 -0.81660265 -0.46334463 0.6035823
000130 4d 00 8f be d3 10 42 3f bb e2 42 bf f2 62 72 bf
       -0.27929917 0.7580692 -0.76127213 -0.9468223
000140 24 5b 83 3c b9 f8 a2 3d d1 a7 3e 3f ce e1 aa 3f
       0.01603467 0.07957596 0.7447482 1.335016
000150 3e bc f6 3d 91 ed 1c c0 c8 98 d2 3e b1 64 f3 3f
       0.12047623 -2.452 0.41132188 1.9015104
000160 f5 48 38 bf 4d 5c 20 3d 34 36 c2 bf be 5b b3 3e
       -0.71986324 0.039150525 -1.5172791 0.3503093
000170 c1 5d 3f 3f 1e d0 b5 3f 78 bd 2d 3f 27 0b fc bd
       0.7475243 1.4204137 0.6786723 -0.12306815
000180 8e ca 6d 3f e2 96 06 3f 97 b9 ba ba ce c3 b8 bf
       0.928872 0.5257398 -0.0014245984 -1.4434755
000190 92 16 19 bf e8 b8 40 be 89 95 4c 3e 8f 9a 9e bf
       -0.59800065 -0.18820536 0.19978918 -1.2390918
0001a0 31 28 d1 be 9c d5 ba 3f ec 1c ae 3e 3c 84 7d bf
       -0.40850976 1.4596438 0.3400644 -0.990299
0001b0 b5 fd 2e bf 63 31 ed be fa f6 a5 bf e9 3f 88 3f
       -0.68355876 -0.46326742 -1.2965996 1.0644504
0001c0 2d 2c 89 bf e6 45 ff bf d1 8f 95 3e 8c 84 d8 3e
       -1.0716606 -1.9943206 0.29211286 0.42288625
0001d0 41 6f 72 3b 94 15 84 bf d6 82 61 3e 2b 5b 40 bf
       0.0036992582 -1.0319085 0.22022566 -0.7513911
0001e0 e5 16 af 3f 27 9c a6 be 4d 34 68 bf 57 9f f4 3f
       1.3678862 -0.3254101 -0.90704805 1.9111127
0001f0 da c2 d2 bf db c8 09 40 3b ba 2a bf 43 73 fd 3d
       -1.6465714 2.1528842 -0.66690415 0.123755

business_tower.embeddings.target_market.weight f4 [5, 32]
000000 88 c0 61 be 37 23 36 3f 31 cf ae 3e 2d 3e cb 3f
       -0.22046101 0.71147484 0.3414245 1.587835
000010 6c 8a b2 be ee 57 ea be d0 a5 9d bf d8 08 19 bf
       -0.34871233 -0.4577021 -1.2316227 -0.5977912
000020 43 15 90 be 98 3e 58 3d 32 7c d9 3e 03 f7 f6 3e
       -0.2814122 0.05279407 0.42477566 0.4823533
000030 4e ce f9 3e f3 fd 80 3f 93 3f 18 bf b5 ee c8 3e
       0.4879021 1.0077499 -0.59472007 0.3924462
000040 4d 94 52 3f 67 b7 62 bf 16 5d bd 3f 60 b8 56 3f
       0.8225754 -0.885611 1.4794033 0.83875084
000050 f0 c0 4c be 1e 96 7e 3f b3 47 38 3f ba 48 09 be
       -0.19995475 0.9944781 0.71984404 -0.13406649
000060 12 fc b3 bf a8 07 17 c0 84 a9 94 be 9f 98 08 be
       -1.4061301 -2.3598423 -0.2903558 -0.1333947
000070 87 9f 20 be 72 a3 91 3f 4e 34 80 be 48 b7 d5 3f
       -0.15685855 1.1378005 -0.25039905 1.6696558
000080 28 23 0c bf 60 ca 09 c0 37 c5 d4 bf 8e 8a 2b bf
       -0.54741144 -2.152977 -1.6622685 -0.6700829
000090 ee 01 b7 3e 97 6f c7 be 0a 4e 00 3f a0 8f 17 c0
       0.3574366 -0.38952324 0.5011908 -2.3681412
0000a0 22 96 10 bf e8 f0 16 bf 1f 0b a2 3f 6f ca a4 3f
       -0.56479084 -0.58961344 1.2659644 1.2874278
0000b0 59 c6 96 bf f1 f5 af bd 4c f3 77 bf d2 1b bc 3f
       -1.1779281 -0.085918315 -0.96855617 1.469599
0000c0 7a 6e b5 3f 70 30 a7 bf d9 a2 a7 bf 08 6b a1 bf
       1.417434 -1.3061657 -1.3096572 -1.2610788
0000d0 ef b7 cc bf 36 9b 22 c0 eb 8b af 3f 96 3b 09 bf
       -1.5993632 -2.5407233 1.3714575 -0.53606546
0000e0 75 a1 3f 3f 18 7d 58 bf bd bd 1b 3d 06 65 ab 3f
       0.7485574 -0.8456588 0.038022745 1.3390205
0000f0 f2 5f 69 3f d6 9d c5 be 5a 4f c7 bf 92 76 4c bf
       0.91162026 -0.38596982 -1.5571091 -0.79868424
000100 95 36 34 bf cb 15 c8 be 5a 64 75 3f 81 79 50 bf
       -0.70395786 -0.39079127 0.9585625 -0.814354
000110 7d 92 18 c0 59 23 9e 3e e8 ff ee 3f bf 7b 8d 3f
       -2.383941 0.30886343 1.8671846 1.1053389
000120 95 af 04 bf fa 6a 3d bf ae 65 30 3e 5a 9f 6a be
       -0.51830417 -0.7399136 0.17226288 -0.2291235
000130 1b 5d 04 3f 53 e2 d7 3f ab 9e ca 3f c1 54 d6 be
       0.5170457 1.6865944 1.5829672 -0.41861537
000140 95 77 ed 3f b4 c5 8a bf b6 b5 60 3f fe 06 58 bf
       1.8552119 -1.0841584 0.8777727 -0.8438567
000150 5f 58 83 3f 01 ff 5f bf ba 95 11 bf 15 9e a6 3e
       1.0261344 -0.8749848 -0.5686909 0.32542482
000160 79 b5 8e 3f 4c bb 9b bf 65 9a 26 40 03 ce cf bd
       1.1149131 -1.2166533 2.6031735 -0.101467155
000170 db d1 9e bd ed 01 a2 3f d3 75 5c 3f c6 50 74 bf
       -0.077548705 1.2656838 0.86117285 -0.9543575
000180 03 00 7c 3d e7 74 b0 be 61 27 0f c0 10 7a dd be
       0.06152345 -0.3446419 -2.2367785 -0.4325719
000190 ac f4 dc 3e 64 06 c8 be db 1f 64 be 1d 03 c8 be
       0.4315542 -0.39067376 -0.22277777 -0.39064875
0001a0 e1 ae 5f 3f 27 d4 84 bf 41 f7 a7 bf b7 67 38 3f
       0.8737622 -1.0377244 -1.3122331 0.72033256
0001b0 8e 5f bd 3e ce fd 1a 3f 57 a0 6b 3f 0e 22 2a 3f
       0.36986965 0.60543525 0.92041534 0.66458213
0001c0 85 4e 6f 3e ff 5a f2 3d 33 7e e3 3d b5 00 f4 3e
       0.23369797 0.118337624 0.11108055 0.4765679
0001d0 22 14 8e 3e 78 6c 1b bf c5 30 0d 3f 6e 65 4e bf
       0.27749735 -0.60712385 0.5515254 -0.8062352
0001e0 97 69 3a be 21 58 ad bf 75 49 00 bf 27 7c 7b 3d
       -0.18204342 -1.354252 -0.50112087 0.061397698
0001f0 b6 75 b5 3e 23 88 bb 3f a1 79 b6 be b2 21 8d be
       0.3544137 1.4650921 -0.3563967 -0.2756477
000200 77 bc eb be 71 69 37 bf 11 55 32 be 61 68 a7 be
       -0.46042225 -0.71645266 -0.17415263 -0.32696822
000210 89 22 24 bf 86 99 48 bf e4 a9 a8 3f d6 39 73 bf
       -0.64115196 -0.7835926 1.3176847 -0.95010126
000220 e6 d3 8e be 42 40 6a 3f 43 36 ee be 63 44 73 bf
       -0.2789604 0.915043 -0.46525773 -0.95026225
000230 30 e0 38 bf ee 56 0b 40 66 dc 23 bf da ee e7 3e
       -0.7221708 2.1771808 -0.64008176 0.45299417
000240 9d 69 5c 3f e6 7c d7 bf bc 7c 98 3f 00 49 39 c0
       0.86098653 -1.6834991 1.1913066 -2.8950806
000250 fa 73 c8 be 09 1a 37 bf 9e ea cc bf 48 48 b0 be
       -0.39150983 -0.715241 -1.60091 -0.34430146
000260 48 eb 1f 3d 1d 09 34 3f d3 56 e8 3f af 1e f3 bf
       0.03904274 0.70326406 1.8151497 -1.8993739
000270 cf 0c b4 bf 7f 68 09 3f 8e 46 e7 3e a4 85 12 c0
       -1.4066409 0.53675073 0.45171016 -2.2894068

business_tower.embeddings.temperature_control_needed.weight f4 [4, 32]
000000 50 02 09 be 95 bc 6f bd 3f b3 00 3e 6c 64 0d bf
       -0.13379788 -0.058529455 0.12568377 -0.55231357
000010 58 76 98 3d d4 cb 18 be 3f 4f 0d bf ce 3b bf bd
       0.07444447 -0.14921504 -0.55199045 -0.09337579
000020 96 93 83 bf d6 f9 ce 3e 84 0f 09 40 5a df 03 bf
       -1.0279415 0.40424985 2.141572 -0.5151268
000030 a6 85 8a 3f 18 e8 9f 3f 91 4e 7b 3f 6a 3c 68 3e
       1.0822036 1.2492704 0.9816676 0.22679296
000040 15 30 fc 3e 7b 38 03 bf 6f d8 99 3e a1 54 9e 3d
       0.49255434 -0.5125806 0.30047938 0.077309854
000050 e9 bf 25 3f a9 4b dd be ee 34 96 3f bd 67 33 3f
       0.64745957 -0.43221787 1.1734903 0.7008017
000060 18 c8 2a 3f 55 9f 4d bf d8 3f b0 bf 6e b5 e1 be
       0.6671157 -0.80321246 -1.3769484 -0.44083732
000070 73 17 11 3e f4 d0 8d 3f 5b dd 0d 3f 1b 5e ca 3f
       0.14169101 1.1079392 0.55415887 1.5809969
000080 c4 e0 9a bf 36 2f 73 3f 4a 78 c9 bf e6 41 2e 3f
       -1.2099843 0.94993913 -1.5739834 0.68069303
000090 71 57 49 bd 12 35 7d 3d 21 8d d5 bf b9 ce 3f bf
       -0.049155656 0.06181819 -1.6683694 -0.7492481
0000a0 52 c7 9e 3f 96 df e0 3e 27 8e 8d bb ee c6 c7 bd
       1.2404578 0.43920583 -0.0043199244 -0.0975474
0000b0 be b5 a5 bf de e9 2b 3f 41 55 99 bd 3f d7 87 3e
       -1.2946088 0.6715373 -0.07486964 0.26531407
0000c0 df f3 b3 be 96 77 04 be ad 22 97 3f a7 fb 9e bf
       -0.35146996 -0.12936243 1.1807457 -1.2420548
0000d0 92 56 9b 3e 5d a3 af bd 42 0d a7 3f de 70 c3 bf
       0.30339485 -0.08576081 1.3050921 -1.5268819
0000e0 7b 78 8c be 5a 64 07 40 8e 25 bd bd fb 32 16 3f
       -0.2743567 2.1155 -0.092356786 0.5867154
0000f0 75 28 4d 3f 6a fc 46 3f c1 8d 9d bd 60 6f 9b 3b
       0.8013986 0.77728903 -0.07693053 0.0047435015
000100 b5 b8 2c 3f 04 a5 f2 3d 8c 29 b1 3e b5 d1 f7 3d
       0.6746934 0.118478805 0.3460201 0.12100545
000110 3d 1d 94 3e f1 e3 ac 3f 0f 26 bc 3f 75 32 86 3f
       0.28928557 1.3507062 1.4699115 1.0484148
000120 31 0b 51 3f 35 d5 53 bf 37 92 63 3f 74 11 c8 be
       0.816577 -0.82747203 0.8889498 -0.39075816
000130 aa b3 bc be 9d 4d 95 bf c5 fa df bf a6 60 22 c0
       -0.36855823 -1.1664311 -1.7498404 -2.537149
000140 0a 87 cb 3d 8a 7d 49 bf ab a2 be 3e 37 95 c1 3f
       0.09937866 -0.7870718 0.3723348 1.5123662
000150 ec 01 64 bf ac f0 04 3f 22 9f b6 3e 63 ec 80 3e
       -0.8906543 0.51929736 0.35668284 0.2518035
000160 1d b1 98 3f 0b fe b4 3f 7f a9 4b 3f 11 52 fc 3e
       1.1929051 1.4140028 0.79555506 0.49281362
000170 70 ee 37 be 3f 30 85 bf db ca b9 bd f2 2f 6e bf
       -0.1796205 -1.0405349 -0.09071895 -0.9304191
000180 55 93 6f 3e 54 b6 b6 3d 06 e4 b3 be 2b 30 5a 3f
       0.23396046 0.08921495 -0.35134906 0.8522975
000190 47 54 4e 3e c2 91 c4 3e bd f1 9d 3f 21 69 9d 3f
       0.20149337 0.38392454 1.2339398 1.2297708
0001a0 4f 3b 35 3f 72 ca 5c bd 2a f2 bd bf 42 20 c2 bf
       0.7079362 -0.053904004 -1.4839528 -1.5166094
0001b0 72 14 a7 3e 6c 87 ba bf 93 d2 f2 3f ed e1 58 bd
       0.32632786 -1.4572577 1.8970512 -0.052949835
0001c0 d2 12 97 be 26 e2 b2 3f 1e f6 69 bf 95 37 48 bf
       -0.29506546 1.3975265 -0.9139117 -0.7820981
0001d0 32 c6 d7 be f0 e8 8b 3f 4a 5d 82 3e d8 f4 db bd
       -0.421434 1.0930462 0.254618 -0.107400596
0001e0 3e f9 44 3f 3e b9 90 bf 74 17 7f 3f 31 e3 96 bf
       0.76942813 -1.1306531 0.9964516 -1.1788083
0001f0 6b 90 76 3f 64 36 8d bf e1 d9 4a bf 40 36 61 be
       0.96314114 -1.1032224 -0.79238707 -0.21993351

business_tower.embeddings.dimensional_weight_class.weight f4 [4, 32]
000000 ad 46 ff 3a 1f b9 56 be 5c a8 99 3f d5 de 2c 3f
       0.0019476019 -0.20969056 1.2004504 0.67527515
000010 a5 ce f1 bf 6a e3 46 3e b8 f5 cc 3f f6 b1 84 bf
       -1.8891188 0.19422689 1.6012487 -1.0366809
000020 c9 92 3f bf 7d b8 c4 be 6f e0 12 3e c0 5b a6 bd
       -0.7483335 -0.38422003 0.14343427 -0.08122969
000030 89 14 90 3f 54 4b 26 3d 49 53 84 bd 4d 6a 5c 40
       1.1256267 0.040599182 -0.06461198 3.443988
000040 b3 62 8e bf 1b 34 de be 09 1c 79 bc da de 0a 3f
       -1.1123871 -0.43399128 -0.015204438 0.54246294
000050 c3 05 00 3e 50 31 60 bf f5 5f 9c 3f 08 40 a7 3e
       0.12502198 -0.87575245 1.2216784 0.3266604
000060 f3 ac d6 bd b8 70 1e 40 36 9e 13 3f e0 c4 16 3e
       -0.10482206 2.4756298 0.57663286 0.1472354
000070 2a 10 a8 bf 64 17 1b bf 04 09 25 3f 74 89 7d be
       -1.3129933 -0.60582566 0.6446688 -0.24759465
000080 32 cb b2 bf b2 e0 ce bd d9 6d 0a 3f 05 e8 98 3f
       -1.396826 -0.10101451 0.54073864 1.1945807
000090 45 d2 0c 40 fd e3 e1 3f 21 49 82 3e ac 20 1a c0
       2.2003338 1.7647702 0.25446418 -2.4082441
0000a0 20 43 b5 be 0c 2e a9 bf 01 0f d2 be 59 1d 0f bf
       -0.35402775 -1.3217177 -0.41027072 -0.55904156
0000b0 d4 07 ea 3f 33 d1 35 bf c3 ae c8 3e 18 31 15 bf
       1.8283639 -0.7102234 0.39195833 -0.58278036
0000c0 91 3d b0 3d 51 d6 a7 be 62 e2 56 3f 5d 5c 8b bf
       0.08605493 -0.32780698 0.8393918 -1.0887562
0000d0 58 e4 80 bf 26 dd 80 bf 3a ba 3a 40 17 a4 b6 3f
       -1.0069685 -1.0067489 2.9176164 1.4268826
0000e0 5d f1 0a bf dc 72 76 bf 54 2c 38 bf 58 8c 06 3e
       -0.5427454 -0.9626901 -0.7194264 0.13139474
0000f0 96 72 77 be 96 22 3a bf 12 c0 9b 3f 2f 56 84 3f
       -0.24164805 -0.72709024 1.216799 1.0338801
000100 d0 88 81 3f 2e a2 22 3f af 37 62 3f 88 fa 50 3f
       1.0119877 0.63528717 0.88366216 0.8163228
000110 c5 5a 4a 3e d8 a3 22 bf 4d 44 5f bf a5 03 c6 bf
       0.19761188 -0.63531256 -0.87213594 -1.5469862
000120 1e 88 4a bf d6 15 12 3f 65 ab 44 3f 0b f4 0f 3f
       -0.7911395 0.5706457 0.7682403 0.56231755
000130 86 d4 a5 3f 40 8a e0 3f b4 fb 5f 3e 9a 03 bd 3f
       1.2955482 1.754219 0.21873361 1.4766724
000140 73 cc 0d 3f 3a 57 b2 3e be ff 58 3f c6 f9 00 40
       0.5539009 0.34832174 0.8476523 2.015245
000150 f2 00 bf 3e c1 de ef 3e 55 84 f6 bc 12 eb 8b 3f
       0.3730541 0.46849635 -0.030092398 1.0931113
000160 b1 57 00 bf 1a 0f 5a bf f7 f9 5b be b6 17 11 40
       -0.50133806 -0.85179293 -0.21482073 2.2670722
000170 f6 c5 49 bf 07 54 87 be 46 35 c8 3f 05 9b 8c be
       -0.7881769 -0.26431295 1.5641258 -0.2746202
000180 a3 04 f3 bd fb 12 8b 3f 03 f9 ba 3f dd d1 5c 3f
       -0.11866119 1.0865167 1.4607242 0.86257726
000190 68 6e 89 be d4 ed 0e 3f 7f 68 44 bd 1d 0e 0f bf
       -0.26842046 0.55831647 -0.047951218 -0.5588091
0001a0 30 b4 03 c0 d9 66 04 3f 3d fc 37 bf 2d ff e9 bd
       -2.0578728 0.51719433 -0.7186926 -0.11425624
0001b0 62 e9 94 be fa 96 a2 3f 6e 5f b9 bf d2 37 a8 be
       -0.29084307 1.2702324 -1.4482248 -0.32855088
0001c0 bc 1f 0a 3e 1d 9d b8 bf e4 3e d8 bf ad 4a 0a bf
       0.13488668 -1.4422947 -1.6894193 -0.54020196
0001d0 af 6f 06 3f c5 10 aa bf 9d 69 a2 3f ca 15 00 c0
       0.52514166 -1.3286368 1.2688481 -2.00133
0001e0 5d 9b b1 3f 8f 71 1a 3e e7 5c 96 bf 8c c1 23 3f
       1.3875538 0.15082382 -1.1747102 0.63967204
0001f0 a4 26 5c bf 4e da fe be 62 97 a6 3e 59 79 33 3f
       -0.8599646 -0.49775928 0.3253737 0.70107037

business_tower.bin_proj.0.weight f4 [32, 34]
000000 61 7f 75 bd d5 f8 ce 3b c5 0a 15 bd d7 4d 1f be
       -0.05993593 0.006316284 -0.036387224 -0.15557037
000010 95 9d d2 bc 7d 40 07 3c dc 9f 1c bd 2c cd 1e 3e
       -0.025709907 0.008255121 -0.03823839 0.15507954
000020 c7 16 e5 bc 16 1e e6 3d db fe 17 3d 48 fa 09 be
       -0.027964963 0.11236207 0.037108283 -0.13474381
000030 b8 78 5e 3d 61 f8 09 3e 02 6b 00 be 48 51 e1 bd
       0.054314345 0.13473655 -0.1254082 -0.11001831
000040 0c 84 33 3e b0 53 0e 3e b5 0b f1 bd f5 29 f9 3d
       0.1753084 0.13899112 -0.11769811 0.12166206
000050 0f 7c cf bc 5d 70 16 be 60 8e 4d 3c 5e bd 95 3d
       -0.02532771 -0.146913 0.012546152 0.073115095
000060 92 c9 2e bd ad 4e 80 3d c8 db 05 be a1 51 d0 3d
       -0.0426727 0.06265006 -0.13072121 0.101718195
000070 5b 90 21 3e ad 69 ae 3d da 9e 84 3c f2 9e 31 3d
       0.15777723 0.0851625 0.016189028 0.043364473
000080 70 81 dc bd 35 26 27 bd 48 0d 12 bc 9d e4 b6 bd
       -0.10766876 -0.04080792 -0.008914299 -0.08930323
000090 45 19 e4 bd c0 8d fa 3d 7f 45 dd 3d c4 bb 25 be
       -0.11137632 0.12234068 0.10804271 -0.16184908
0000a0 56 5a 4c 3d 73 f5 aa 3d 3b b3 2a 3e f0 b7 c0 3d
       0.04989084 0.08347597 0.16669933 0.09410083
0000b0 a1 32 28 3e d5 98 29 bd d0 be f4 3d f8 53 1f 3e
       0.16425563 -0.041405518 0.11950457 0.15559375
0000c0 11 25 18 be 8a ee 00 be 37 e1 20 3d ce 17 c8 3d
       -0.1485789 -0.12590995 0.03927728 0.097701654
0000d0 49 b4 36 bd 35 be a1 3c ab f0 dc 3c dc af 9a 3d
       -0.044605527 0.019744018 0.026970228 0.07553074
0000e0 f5 87 cf bd 8b a1 8e 3d 55 22 04 3e 9b 18 0d be
       -0.101333536 0.069644056 0.12903722 -0.13778917
0000f0 b3 53 dc 3c a7 c1 e4 3c 77 bd 21 3d f3 bd 39 3e
       0.02689538 0.027924372 0.03948733 0.18138866
000100 60 fe 80 3d 38 e4 f6 bb 46 32 1f 3e c5 de c0 bd
       0.06298518 -0.00753453 0.15546522 -0.0941749
000110 52 66 61 bd b8 20 03 3c 75 bb 00 be 28 63 5a 3c
       -0.05502922 0.008003406 -0.12571509 0.013329305
000120 85 98 00 be a6 e6 54 3c 42 47 0d 3c d2 f5 98 3c
       -0.12558182 0.012994444 0.008622946 0.018671904
000130 2e 4f 1c be 3b 50 37 be db a7 b4 3d e6 ee 0e 3e
       -0.1526458 -0.17901699 0.088210784 0.1395832
000140 0d 13 16 be 39 cc 38 3d f0 1e f8 bd 0c bb 84 3b
       -0.14655705 0.045116637 -0.12115276 0.004050618
000150 f3 81 1b 3e 25 1c 07 3e 3f f4 05 be 08 7e d9 3d
       0.1518629 0.1319433 -0.13081454 0.10619742
000160 2c 09 bd 3d 08 d9 ea bb 13 ca 1a 3e 30 a6 a0 bd
       0.09230265 -0.0071669854 0.15116148 -0.07844198
000170 4c eb 2c bd 9c fb ca bd 3a 1e 12 3d b4 35 35 3d
       -0.042216584 -0.09911272 0.035673358 0.04424067
000180 2c c7 80 3a 27 b8 ac bd c6 64 a6 bd 5b 8b 6d 3d
       0.0009824983 -0.08433562 -0.0812469 0.057994228
000190 4d 92 2e be 69 77 49 bd e6 94 a3 bc 00 6b 9a bd
       -0.17047997 -0.049186144 -0.019968461 -0.0753994
0001a0 89 7c 3b 3d c7 68 93 3b 55 e8 f2 3d 1c 41 01 bd
       0.045773063 0.0044985744 0.1186072 -0.031556234
0001b0 ba aa ed bd 06 b1 de 3d e2 c6 c2 3c a6 f9 78 bd
       -0.11604829 0.10873608 0.023776475 -0.06078496
0001c0 e0 85 09 be ce fa d3 3c c6 fc 3b be 0a 5b 0b 3d
       -0.13429976 0.025876429 -0.18358144 0.03402237
0001d0 94 b5 84 3d 39 78 2a be d9 c6 ef bd 6c 87 13 be
       0.06479946 -0.16647424 -0.11707849 -0.14407128
0001e0 2f a8 01 3e 9d ea 00 3e e5 c0 97 bb 32 77 17 3e
       0.12661813 0.12589498 -0.004631149 0.14791563
0001f0 15 2a 60 bd f0 2f 2f be 5b 0d 27 3d cb 07 6b 3d
       -0.054727633 -0.1710813 0.04078422 0.05738048
000200 64 5d 0f 3e 5b 2e 8e bc cd 82 04 3e a2 31 ab 3d
       0.1400047 -0.017356088 0.12940522 0.08359076
000210 c4 1b e3 3d 2d 0f 4b be 5e b5 03 3e 47 34 07 be
       0.1108928 -0.19830008 0.12862155 -0.13203536
000220 a8 0e 19 3e 96 68 ad bb 33 ba 18 be ab fc 39 3d
       0.14946997 -0.0052920086 -0.1491478 0.04540698
000230 df 3d 09 bd cf c1 14 be 5b b4 68 bd 62 28 0c bb
       -0.03350627 -0.14527057 -0.056812625 -0.0021386375
000240 e6 ba 01 3e b9 73 28 bd 4e 45 d6 3d a0 4a 56 3c
       0.12668952 -0.041125987 0.104624376 0.013079315
000250 53 20 7b 3b ef ac ce 3c 73 26 ef bd d6 1c 17 be
       0.0038318827 0.025228946 -0.116772555 -0.14757094
000260 95 a7 54 bd 90 e1 20 be ac c6 cd bd e1 e2 ff 3b
       -0.05191763 -0.15711045 -0.10047659 0.0078090285
000270 14 43 fe bd 97 64 ae bd 0a 9c 8f bc 37 cd 02 3b
       -0.12415138 -0.0851528 -0.01753046 0.0019958743
000280 c8 2c d4 bd a2 d8 8e 3c f5 83 2c bd 44 83 1a 3d
       -0.10360104 0.017437283 -0.04211803 0.03772284
000290 38 0a a3 3c 60 b3 bc bd 33 57 74 bd b9 20 97 bc
       0.019902334 -0.092139006 -0.059653472 -0.01844822
0002a0 b8 74 d9 bd be f3 19 3d 8e b5 e3 bb e6 29 77 3d
       -0.106179655 0.037585966 -0.0069491332 0.06034269
0002b0 30 16 48 3d 5b 98 0e 3e 3a 54 35 bc d3 3f 01 be
       0.048849285 0.13925306 -0.011067444 -0.12622003
0002c0 dc 6c 9d 3d 36 df dd bd 14 59 b4 bc ed 5e 64 bd
       0.07686779 -0.1083359 -0.022015132 -0.05575459
0002d0 de 1c 82 bd f7 a8 52 bd c0 28 21 3e 02 d1 fd 3d
       -0.06353162 -0.05143067 0.15738201 0.12393381
0002e0 4a 5f 62 3d 48 c5 21 3e 12 89 23 be 0e 06 d7 3c
       0.055266656 0.15797913 -0.15970257 0.026248004
0002f0 3d de 11 3e 99 70 e6 3d 67 be f7 bd 6a aa 8f 3d
       0.14244933 0.11251945 -0.12096863 0.07014926
000300 49 d1 ed bd 6b 71 13 bd 6e 6b 0c bd 2c 5f 2c be
       -0.116121836 -0.035996836 -0.03428214 -0.1683318
000310 dd f8 02 be 7e 5d b5 bd 5c 56 85 3d f5 15 bd 3d
       -0.12790246 -0.08855723 0.06510612 0.092327036
000320 2c d5 0c be 9e 62 20 bd d6 e8 00 3c ac 76 37 be
       -0.13753194 -0.03915655 0.007868012 -0.17916363
000330 3b 16 cb 3d e1 77 22 3e ef f5 29 3d 77 fa f6 bd
       0.099163495 0.15866043 0.041494306 -0.12059491
000340 a1 15 14 3d 67 21 67 3d f7 51 02 3e 3e 94 a0 bd
       0.03615344 0.05642834 0.1272658 -0.07840775
000350 11 ac 1f be 92 19 96 3d 45 ef 83 3c a4 60 3f bd
       -0.15592982 0.07329096 0.016105304 -0.046723023
000360 f3 f4 9a bd 4c fc 93 bd d3 18 17 3e 41 90 f2 bc
       -0.075662516 -0.07225856 0.14755563 -0.029609801
000370 70 3b f8 3d 59 9a 21 3e a8 51 38 3d b9 2b 32 3d
       0.12120712 0.15781535 0.04499975 0.04349873
000380 99 99 e9 3b 33 09 0a 3e ef dd 2c be fe 42 4a 3d
       0.007128906 0.13480072 -0.16881536 0.049380295
000390 e4 78 a8 bc 78 62 85 3d 84 bd e0 3c c9 ad 2c bd
       -0.020565458 0.06512922 0.027434118 -0.042157922
0003a0 8f 48 c9 bc 7c c5 e0 3d 92 9a df bd 42 cf ac bd
       -0.024570731 0.10975167 -0.10918154 -0.08437969
0003b0 17 8a f7 bc 0a a9 99 bd 3d e9 75 3d 01 ae ee 3d
       -0.030217214 -0.07502945 0.060036886 0.11654282
0003c0 97 56 e9 bc f3 62 1a 3e d6 e6 a1 bd 27 4f c1 bd
       -0.028483672 0.15076809 -0.079053566 -0.09438925
0003d0 1b 63 87 bd 04 a2 09 be 19 bf ff bd 65 70 16 be
       -0.066107 -0.1344071 -0.12487621 -0.14691313
0003e0 fb 69 28 be 26 59 0f 3d 5b fc c7 3d f0 1f 0d 3e
       -0.16446678 0.034997128 0.0976493 0.13781714
0003f0 20 6b 0d 3e 07 f8 91 bc 37 39 c9 3c 48 bb e5 bd
       0.13810396 -0.017818464 0.024563415 -0.11217362

business_tower.bin_proj.0.bias f4 [32]
000000 93 77 54 3d 7f b4 49 bc f1 17 9a bc 73 5a 0f bc
       0.051871847 -0.0123111 -0.018810244 -0.008749592
000010 ec 74 18 3e 88 c4 e7 3c dc d9 d3 bd ab f6 92 bd
       0.14888352 0.028291956 -0.10344288 -0.071759544
000020 e0 b5 a8 3d b8 35 90 3d c7 b3 15 3c f3 9a ba bc
       0.08237815 0.07041496 0.009137101 -0.022778964
000030 f5 93 81 bd 1e 5e 98 bd fd 39 95 bd 0e 58 9a 3c
       -0.06327049 -0.074398264 -0.07286451 0.018840816
000040 67 6c 87 3d 7c c3 02 3e 96 b7 2e bd 4a b3 91 3c
       0.06612473 0.12769884 -0.04265555 0.017785687
000050 d2 b0 f8 3d 50 65 a4 3d 7d 19 67 3c 53 23 70 3d
       0.12143101 0.08027136 0.014105198 0.058627438
000060 b5 98 b2 3c 10 29 19 be f0 16 4e 3c 7e 22 4c bd
       0.021801332 -0.1495707 0.012578711 -0.04983758
000070 6b fa 1d 3e f3 a6 22 3e b2 cf dd 3c f7 99 1b 3e
       0.15427558 0.15883999 0.027076576 0.15195452

business_tower.bin_proj.1.weight f4 [32]
000000 39 c1 78 3f b8 a5 80 3f 1d ae 80 3f 44 06 7c 3f
       0.97169834 1.0050573 1.0053135 0.9844706
000010 6e 18 7f 3f 4b c5 81 3f f8 bf 7f 3f dc d9 7c 3f
       0.9964665 1.0138334 0.99902296 0.9876993
000020 56 05 80 3f c4 68 81 3f f7 a2 80 3f 07 20 7e 3f
       1.0001628 1.0110097 1.0049733 0.9926762
000030 99 11 80 3f b1 b3 80 3f 0b e7 82 3f a5 62 7e 3f
       1.000537 1.0054837 1.0226759 0.9936927
000040 48 a1 7e 3f 55 93 7e 3f 29 bf 7d 3f 78 17 7f 3f
       0.99464846 0.9944356 0.9911981 0.99645185
000050 42 dd 80 3f 4a f0 80 3f fc 10 81 3f 51 cd 80 3f
       1.0067523 1.007333 1.0083308 1.0062658
000060 b3 e4 80 3f bd 05 7d 3f 60 92 7a 3f bd 9f 7f 3f
       1.0069793 0.9883688 0.978796 0.99853116
000070 0a 08 7f 3f 8c 19 80 3f e6 7b 7e 3f 8e 4d 80 3f
       0.9962164 1.0007796 0.99407804 1.0023668

business_tower.bin_proj.1.bias f4 [32]
000000 34 89 43 3c 9a 1d dc 3b 1f c5 fc bb e8 77 8d bc
       0.011934567 0.006717396 -0.0077139284 -0.01726909
000010 f3 7a 94 bb a2 96 4e 3b 0d 06 04 3b c8 f9 01 bc
       -0.0045312583 0.003152289 0.0020145208 -0.007933088
000020 f2 15 a3 bb ed a4 39 3c b8 3c c1 3b 29 4b 94 39
       -0.0049769813 0.011330825 0.005897131 0.00028284758
000030 9b e6 4f 3b d3 c2 33 bc e5 e3 89 3c 24 3c 4b bc
       0.0031723145 -0.010971743 0.016832301 -0.012404475
000040 16 9d 6c 3c 74 5a b0 bb 4e 03 7e bb c6 c2 d0 3b
       0.014441749 -0.0053818766 -0.0038759294 0.006370875
000050 4b 1f d1 3b 3e 04 92 bb 4f 0c 9b bb 05 7f 31 3b
       0.0063819042 -0.004456072 -0.004731692 0.0027083766
000060 60 73 10 3c fb dd ff bb 6f ea 3f 3c 18 b3 d1 3a
       0.00881657 -0.0078084446 0.011713608 0.0015998809
000070 06 c2 9a ba fa bd 01 3b 9c 0c c0 bb 5a 70 9d ba
       -0.0011807091 0.0019797073 -0.005860878 -0.0012011633

business_tower.transformer.layers.0.self_attn.in_proj_weight f4 [96, 32]
000000 d6 48 12 3e 5a 37 35 be 16 83 c2 3d 4f c1 fe bd
       0.14285597 -0.17696896 0.09497659 -0.124392144
000010 e3 d3 18 3e f6 ee 47 be b6 dd 88 3d 47 15 2b be
       0.14924578 -0.1952475 0.06682913 -0.16707335
000020 eb 55 d5 3d 84 be 83 3c 8a f2 3a 3e ad 63 3e be
       0.10416778 0.016082056 0.18256584 -0.18592711
000030 84 32 f5 3d 0b b3 21 be 39 55 dc bd b3 eb a2 3d
       0.11972526 -0.15790956 -0.107584424 0.07955112
000040 1e fa 40 bd ab 44 36 be a1 c8 4e be ce f5 95 bd
       -0.04711353 -0.17799632 -0.20193721 -0.07322274
000050 e2 33 05 3d 0f d9 52 3e 9f 6f 0d 3e 35 db 9b bc
       0.032520182 0.20590614 0.13812111 -0.019025424
000060 98 de 25 be 83 0d 37 be 5f cf 4c 3e f3 a8 11 be
       -0.16198194 -0.17876248 0.20000981 -0.14224605
000070 88 b7 67 bd fc 17 38 be 44 6a 34 be b6 b9 6c 3d
       -0.056571513 -0.179779 -0.17618662 0.057794295
000080 c1 a7 a1 bd 61 a3 07 3d b5 5d 91 3b fb 26 3f 3c
       -0.07893325 0.033114795 0.0044362196 0.0116670085
000090 b5 3d 3d bd 7e 54 5e 3c 55 3c c1 3d ae 5f 08 3e
       -0.046201427 0.013569949 0.094353355 0.13317749
0000a0 e0 96 2a 3e 41 5b 41 be 2c 8a 4f be f3 75 5d bd
       0.16659117 -0.18882467 -0.20267552 -0.054067563
0000b0 92 80 ff ba 2e fc cc 3d 4f 1f 60 3e 5e 59 2d 3d
       -0.0019493273 0.10009037 0.21886943 0.042321555
0000c0 73 fc 32 be ed 45 a4 bc 07 fb 08 3e 28 a8 8c 3d
       -0.17479114 -0.020052874 0.1337701 0.06868011
0000d0 b9 9f 26 be 62 66 d6 3b e4 8b 46 be b6 7e b6 bd
       -0.16271867 0.0065429667 -0.19389302 -0.08910887
0000e0 23 81 05 3e 67 c7 dd bd 88 69 fb 3d 9a f6 34 be
       0.13037543 -0.108290486 0.12275988 -0.17672196
0000f0 95 e6 2c 3e b5 7d b2 3d 7c 95 0b 3e 9e b8 95 3d
       0.16884835 0.08715383 0.13631243 0.073106036
000100 5a 67 f3 3b f8 8f d5 bd 30 cf fd bd 69 dd 1f be
       0.007428092 -0.104278505 -0.123930335 -0.15611805
000110 b2 c6 30 3e c8 86 90 bd 70 91 ad 3c b8 84 4c be
       0.17263296 -0.070569575 0.021187514 -0.19972503
000120 a6 5a 70 3d 91 92 6c bd cb 71 37 be 5a 19 87 3c
       0.0586802 -0.057756964 -0.17914502 0.01649158
000130 03 6f 4d be 72 70 21 bd 2b 36 38 be 5d 49 fd 3d
       -0.20061879 -0.039413877 -0.17989413 0.123675086
000140 2d 33 32 be 8f 06 25 3d 22 26 f8 3d be 37 2e be
       -0.17402335 0.040289458 0.12116648 -0.17013451
000150 a9 38 1a 3e b8 b1 3a 3e bb 97 05 be e1 f7 b7 3c
       0.15060677 0.18231857 -0.13046162 0.022457065
000160 0c 7e 8e 3d a5 87 33 3e 07 0b 31 3e 38 68 30 be
       0.06957635 0.17532213 0.17289363 -0.17227256
000170 1a 0d 3b be 65 81 4f be 90 f7 c9 bd 5b 9a 96 bd
       -0.18266717 -0.20264204 -0.09861672 -0.0735366
000180 3c 5c 70 bd 71 52 05 3e e3 a3 24 be 9a 1a 2c be
       -0.05868171 0.1301973 -0.16078143 -0.16807023
000190 61 16 28 be bd 50 1a be 8a f3 45 3e 61 6a 0a 3d
       -0.16414787 -0.15069862 0.19331184 0.033792857
0001a0 f8 e3 d9 bc d2 15 89 bd 59 0d 19 be 17 17 60 bd
       -0.026597962 -0.06693615 -0.14946498 -0.05470952
0001b0 a3 7c cf 3d b5 bd 25 3e 59 fa 12 3e 71 9c 08 3d
       0.101311944 0.16185649 0.14353313 0.03335232
0001c0 8a 42 ed bd 16 bd 0a be cb ef 4f 3e c3 85 42 be
       -0.11584957 -0.13548693 0.20306318 -0.18996339
0001d0 19 c9 36 3d de 56 a7 bc f3 fa 3d 3e 82 9c fc 3d
       0.044625375 -0.020427164 0.18552761 0.12334539
0001e0 70 95 69 bd e2 06 1b be f2 a1 ff 3c 3f 1c 21 be
       -0.05702728 -0.15139344 0.031205151 -0.15733431
0001f0 89 bb aa bb 4c 19 99 3d cd 28 d0 3d 74 07 2c bd
       -0.005210344 0.07475528 0.10164032 -0.041999295
000200 79 c3 14 be 0b 59 3a be fe e0 5f be e9 10 16 3d
       -0.14527692 -0.1819803 -0.21863171 0.03663722
000210 34 10 0a be 33 36 01 3c 98 75 d8 bd dc ec fa bd
       -0.13482744 0.007886457 -0.10569304 -0.122522086
000220 9c 8f 22 3e 11 00 db 3d ab 18 10 3e f7 64 52 3e
       0.15875095 0.10693372 0.1407191 0.20546328
000230 f3 24 2b be 8f 91 e0 bd 1c f6 18 be 2d 04 1d 3e
       -0.16713314 -0.10965263 -0.14937633 0.15333624
000240 01 1c 0e 3e 30 4c 44 3e f4 b3 1f be d7 58 03 be
       0.1387787 0.19169688 -0.1559599 -0.12826858
000250 46 37 53 3e 79 90 24 be c6 17 0b be 04 55 99 3d
       0.20626554 -0.16070737 -0.13583288 0.074869186
000260 43 ae 3e be 38 df 74 bd 99 88 cf 3d c4 56 2f 3e
       -0.18621163 -0.05978319 0.10133476 0.17122942
000270 4a 9a e6 bb 77 92 3c be 0e 45 e3 3d 0f 5d 5b 3e
       -0.0070374357 -0.18415247 0.110971555 0.21422218
000280 5a 3b 2a be ee fc 33 3c 87 58 17 be 7a 66 bf bd
       -0.16624203 0.010985596 -0.14779864 -0.09345718
000290 74 dc b4 3d 4a 8d 05 3e a2 70 ec 3d a8 1a 56 be
       0.088311106 0.13042179 0.115449205 -0.20908606
0002a0 ce 25 64 bd 25 79 d6 3d c3 23 30 bd 59 ea ad bd
       -0.055700116 0.10472325 -0.043002855 -0.08491964
0002b0 86 0e ad bd b3 6d 45 3e 8a ea 26 be 14 0b 40 be
       -0.08450036 0.19280128 -0.16300407 -0.18754226
0002c0 92 a9 20 3e 5c 18 08 be d1 c3 0e 3e a1 a2 13 be
       0.15689686 -0.13290542 0.13941886 -0.14417507
0002d0 2b f7 90 bc 2b 31 d3 bd 1b fe 53 3e 9a 1f 2e 3e
       -0.017695984 -0.103121124 0.20702402 0.17004243
0002e0 8d 56 16 3d fe 10 90 bc 24 ce 88 bd 6a 1a cb bd
       0.036703635 -0.017586228 -0.06679943 -0.099171475
0002f0 5f 21 a6 bd 48 8f 78 3d cc 72 08 bd 6d fc 0a 3e
       -0.08111834 0.06068352 -0.033312604 0.13572855
000300 67 5e 2d 3d 0b 03 c7 bc d2 3d 13 be 74 12 b4 3d
       0.042326357 -0.024293443 -0.14379051 0.08792582
000310 0f dd 5c be 61 dd a9 3c 2a c3 4c 3d 27 6e 7f 3d
       -0.21568702 0.020735445 0.04999081 0.06236091
000320 44 5e 28 3e a7 60 38 3d 04 82 09 bd 79 0a 07 be
       0.1644221 0.04501405 -0.03357126 -0.13187589
000330 4b 9b 6c be 2b e0 f2 3d b7 6f e0 3d 72 f1 16 be
       -0.23106115 0.11859163 0.10958808 -0.14740542
000340 49 f3 85 3d a1 2c a1 bd a1 63 2b 3e 2b 75 87 bd
       0.065405436 -0.078698404 0.16737224 -0.06614145
000350 c8 61 2b 3e 58 8d 26 3e c2 85 b4 3d 3b 4b 05 3e
       0.1673652 0.16264856 0.08814575 0.1301698
000360 75 59 49 3d 43 12 ca 3d e1 e9 36 be 66 1f 88 bd
       0.04915758 0.098667644 -0.17862655 -0.06646614
000370 d8 2e 8f bc 56 94 ef 3d 2b e7 ca bd 51 35 d0 3d
       -0.017478392 0.11698215 -0.09907373 0.10166419
000380 e2 5c 27 3e 48 41 8a 3d 1c 22 d8 3d 44 88 23 bc
       0.16344026 0.06750733 0.10553381 -0.009981219
000390 2d b7 d2 3d a1 71 be bd 49 38 30 3e ab b9 b9 3b
       0.10288844 -0.09299017 0.17208971 0.0056678853
0003a0 61 0d 91 bc 87 73 5a be 5e 05 64 3e 11 d0 43 bc
       -0.017706575 -0.21333133 0.22267672 -0.011951462
0003b0 65 e7 19 3e d3 09 02 be 02 2f 31 be 2f 76 79 bc
       0.15029676 -0.1269906 -0.17303088 -0.015225931
0003c0 3c be 1c be fb 7d 12 3d 12 d5 38 bc c4 6c b0 bd
       -0.15306944 0.035764676 -0.011281269 -0.086144954
0003d0 29 b1 e3 3d f5 96 11 3e ba a0 4d be 2f d7 30 be
       0.11117775 0.14217742 -0.20080844 -0.17269586
0003e0 b8 bb fd 3d af 81 fe bd 05 74 74 3d f3 a0 95 bd
       0.1238932 -0.12427079 0.059680957 -0.07306089
0003f0 27 bc 80 3d 2d f9 d9 bd c2 96 db bb 51 11 88 bd
       0.06285887 -0.1064323 -0.0067013213 -0.06643928

business_tower.transformer.layers.0.self_attn.in_proj_bias f4 [96]
000000 34 ae e5 bc e3 ec 74 bc c4 c5 48 3b 3b a9 49 3a
       -0.028037168 -0.014949056 0.0030635456 0.0007692759
000010 c8 f6 8b 3b ab fc 95 3c f6 05 6f bc b0 18 73 bb
       0.004271362 0.018308958 -0.014588824 -0.0037093572
000020 21 55 55 bc 9f 16 07 3c 7b 4f fc bb f2 55 38 3c
       -0.013020785 0.008245139 -0.0076999045 0.01125096
000030 27 82 ac 3b ef c2 bd bb 66 33 4f 3b 76 52 ff 3a
       0.005264539 -0.00579106 0.003161633 0.0019479531
000040 f8 7b 0c 3d 29 a3 28 3c d2 29 c5 3b 18 a8 cb bb
       0.034297913 0.010292807 0.0060169483 -0.0062151067
000050 c1 5e 97 3c 2e ac 03 bd d7 de d1 3a 26 7c 5e bc
       0.0184778 -0.032146625 0.0016011846 -0.013579404
000060 60 86 9d 3c 33 e0 2b 3b bd d6 62 3c 57 8f 63 39
       0.019229114 0.0026226162 0.013845143 0.00021701805
000070 2e b8 eb 3b 00 21 b2 bb d4 49 14 3a 37 d9 c6 bb
       0.007193587 -0.005436063 0.0005656753 -0.0060683745
000080 cf 61 8a 34 b5 6a 3b b5 e4 05 1f b4 90 a2 7c b5
       2.5775668e-07 -6.981821e-07 -1.4810172e-07 -9.4113875e-07
000090 b1 2e 3b b6 f3 62 41 36 d2 ab aa 33 aa bf 54 b5
       -2.789235e-06 2.8816837e-06 7.947496e-08 -7.925506e-07
0000a0 1b 40 7a b5 06 2c 1c b6 26 c0 81 34 25 36 75 35
       -9.3225543e-07 -2.3271436e-06 2.416793e-07 9.1348403e-07
0000b0 1b 19 e4 b4 be 82 c4 35 14 c7 bb 35 a1 d2 8f 35
       -4.2486576e-07 1.4641189e-06 1.3990525e-06 1.0715631e-06
0000c0 9c d0 f6 b3 a9 aa c4 34 36 dc 57 b5 f3 c5 89 b5
       -1.14932135e-07 3.6632017e-07 -8.041419e-07 -1.0264906e-06
0000d0 bb 12 09 35 96 a9 8a b4 75 fa 81 35 ec 44 a4 b5
       5.1063734e-07 -2.5827893e-07 9.684142e-07 -1.2239011e-06
0000e0 5b 82 0c 35 ef d5 85 35 a9 0c 1d b5 24 c0 43 b5
       5.2343756e-07 9.971535e-07 -5.850548e-07 -7.292276e-07
0000f0 2f f1 d0 34 fb 1c 29 35 7c 15 44 35 3f b3 8c 32
       3.8918503e-07 6.299958e-07 7.3046954e-07 1.6379657e-08
000100 d8 54 24 3a c7 3a 8d 3b 21 33 7b 3b 27 2d 7f bb
       0.0006268746 0.0043099853 0.0038330036 -0.0038936825
000110 fd c8 ed bb 4e b0 84 bb c8 6a d0 3a 48 14 e5 bb
       -0.0072566257 -0.0040493375 0.0015900964 -0.006990943
000120 4c 6f 59 3c 9c 1d 5c ba b3 43 c5 3b 64 db c9 ba
       0.013271164 -0.0008396746 0.0060200333 -0.0015400467
000130 ac 47 d5 ba ef 52 9f 3a 47 ef 7e 39 3a b5 b1 bb
       -0.001627197 0.0012155453 0.00024312465 -0.005423215
000140 fd 81 b7 3a 0c c1 8b 3b 9e d0 5e 3a 7a 35 47 bb
       0.0014000532 0.0042649563 0.00084997143 -0.0030396865
000150 87 2c aa 3b 13 d1 dd bb e9 ff ac 3a a6 15 91 bb
       0.0051932964 -0.0067693084 0.0013198826 -0.0044276295
000160 0d 1a ee b6 0a 6c 6b ba cb ee 4d bb c0 64 a7 3b
       -7.0959854e-06 -0.00089806376 -0.003142285 0.005108446
000170 52 fc 5c bc 08 b5 e2 3b ab 9f 4d bb bf 00 08 3c
       -0.013487892 0.0069185533 -0.0031375687 0.008300959
