deployment/model/best_model.pt (torch, 293410 bytes, 78 tensors)

business_tower.num_proj.0.weight f4 [32, 21]
0	0x3e0b6276	0.13611779
1	0x3e672209	0.22571577
2	0xbd95a56e	-0.07306944
3	0x3e4b7d92	0.1987212
4	0xbd4b6e43	-0.0496657
5	0x3cdf1841	0.027233245
6	0xbdaf9e1e	-0.0857508
7	0x3e083078	0.1329974
8	0x3e311f3a	0.17297068
9	0xbe102a30	-0.14078593
10	0x3e48ff04	0.1962853
11	0x3d3585b0	0.044316947
12	0x3e29e7f2	0.16592386
13	0x3d1ec9a0	0.038766503
14	0x3ddb15e3	0.10697534
15	0xbcb9c9f8	-0.022679314
16	0x3e2f7b54	0.1713689
17	0x3d2f099f	0.042733785
18	0xbdc59f65	-0.09649543
19	0x3d8e3cb6	0.069451734
20	0xbdc326cc	-0.09528884
21	0x3be7a7f9	0.0070695844
22	0xbdd3324e	-0.10312329
23	0x3e1085ed	0.14113589
24	0xbe27a931	-0.16373135
25	0xbdb9ae48	-0.09066445
26	0xbd5b3c78	-0.053524464
27	0xbe050e58	-0.12993753
28	0x3ccf8f14	0.02533678
29	0xbe46c8dc	-0.1941256
30	0x3e33fd65	0.17577131
31	0xbe330aeb	-0.17484634
32	0x3e1eba9f	0.15500878
33	0x3d14f02b	0.036361855
34	0xbdab0460	-0.08350444
35	0x3e042f19	0.12908591
36	0x3cead850	0.028667599
37	0x3e2beb96	0.16789088
38	0x3c6687bb	0.014070447
39	0xbd90e69a	-0.07075234
40	0x3d3352b4	0.043780044
41	0xbd8ddc00	-0.06926727
42	0x3d881deb	0.066463314
43	0x3e64555c	0.22298187
44	0x3de9fa0e	0.11424647
45	0xbdcd2bd7	-0.100181274
46	0x3df78722	0.120863214
47	0x3d0f7772	0.03502602
48	0x3de06f7f	0.10958766
49	0xbe10c918	-0.14139211
50	0xbe72f5b4	-0.23726541
51	0xbd80ce2f	-0.062893264
52	0xbe1e11e7	-0.15436517
53	0x3e442ec4	0.19158465
54	0x3d89793f	0.06712579
55	0x3ddedc1e	0.10881828
56	0x3da61472	0.081093684
57	0x3c3ca9f7	0.011515132
58	0x3e3c18af	0.18368791
59	0xbe0d3efb	-0.13793556
60	0x3c82d27a	0.015969504
61	0xbe07549d	-0.13215871
62	0x3d9fcc86	0.078026816
63	0xbda51cda	-0.080621436
64	0x3da11ebb	0.078671895
65	0xbd02612c	-0.03183095
66	0x3e2f8a31	0.1714256
67	0xbe02e2e5	-0.12781866
68	0xbe06d5a8	-0.13167441
69	0xbe03c6e3	-0.12868838
70	0x3e41a013	0.1890872
71	0x3d8fa742	0.07014324
72	0x3e597ae2	0.21238282
73	0xbe29c745	-0.16579922
74	0xbe67f361	-0.22651435
75	0xbe37837a	-0.17921248
76	0xbe1654fe	-0.1468086
77	0x3d9c44a3	0.07630279
78	0x3d830f68	0.06399423
79	0x3e341c9e	0.17589042
80	0xbded8ebe	-0.115994915
81	0xbe1c242f	-0.15248178
82	0x3de34c50	0.1109854
83	0xbdbd4fac	-0.09243712
84	0x3df05b29	0.117361374
85	0xbc86e0a7	-0.016464544
86	0x3dd62347	0.10455947
87	0xbe1eca1d	-0.15506788
88	0xbdda589b	-0.106614314
89	0x3d943cd0	0.072381616
90	0x3d5e2b65	0.054240603
91	0xbd2da251	-0.042391125
92	0x3e04064b	0.12893026
93	0x3e18e98f	0.14932846
94	0xbe15eafc	-0.1464042
95	0xbdfb705a	-0.12277289
96	0x3e3f2847	0.18667708
97	0xbda860dc	-0.082215995
98	0xbdb9e573	-0.09076967
99	0xbe6cf48f	-0.23140167
100	0xbe13bdbe	-0.1442785
101	0x3d2bdba8	0.041957527
102	0xbd3f6b5e	-0.046733253
103	0xbe2531fa	-0.16132346
104	0xbc698d51	-0.014254884
105	0xbdfd0dba	-0.12356134
106	0xbe6c40f3	-0.23071651
107	0xbdced8ea	-0.10099967
108	0xbe500762	-0.20315316
109	0xbe0794c4	-0.13240343
110	0x3e5a80fe	0.21338269
111	0x3d0f6b74	0.035014585
112	0x3d63860c	0.05554776
113	0xbe4522ad	-0.19251509
114	0xbe1de0c8	-0.15417778
115	0xbd973cba	-0.073846295
116	0x3d092843	0.033485662
117	0xbe3a6af7	-0.18204866
118	0xbdad875d	-0.08473084
119	0xbdfa1da4	-0.12212685
120	0x3bce93a9	0.0063042236
121	0xbd8b3d12	-0.067987576
122	0xbc131b83	-0.008978727
123	0xbe0b5dfa	-0.13610068
124	0xbe15bbed	-0.14622469
125	0xbdde47ca	-0.108535364
126	0xbd8b73dc	-0.06809208
127	0xbe400868	-0.18753207
128	0x3e331a0f	0.1749041
129	0xbd1f491c	-0.038888082
130	0x3e3c1ee7	0.18371163
131	0x3d940a94	0.0722858
132	0xbe3a3069	-0.1818253
133	0x3e139d48	0.14415467
134	0xbd6035bb	-0.05473874
135	0xbdb600de	-0.08886884
136	0xbe3734c2	-0.1789122
137	0xbe59d0e0	-0.21271086
138	0x3d91322d	0.070896484
139	0xbd5a293e	-0.053261988
140	0x3db58995	0.08864132
141	0xbe336e0b	-0.17522447
142	0x3e279247	0.16364394
143	0xbe226559	-0.15858974
144	0xbd13f8b7	-0.036125865
145	0x3d393e5c	0.045225486
146	0x3ddf84e7	0.10914021
147	0x3e10f016	0.14154086
148	0x3e78e883	0.24307446
149	0xbe4a74fd	-0.1977119
150	0x3d64192d	0.055688072
151	0xbdb1733e	-0.08664559
152	0xbd1555a8	-0.03645864
153	0xbe241d00	-0.16026688
154	0x3e4bc7cc	0.19900435
155	0xbe1f67bc	-0.15566915
156	0x3de6236e	0.112372264
157	0x3da583dc	0.08081791
158	0x3db921c3	0.09039643
159	0xbdd1f0b8	-0.102509916
160	0x3e55c658	0.20876443
161	0x3d89763e	0.06712006
162	0x3d561ad4	0.05227168
163	0xbe33fa08	-0.17575848
164	0x3de90b28	0.11379081
165	0xbcc0bbfb	-0.023527136
166	0xbd9ee393	-0.0775825
167	0x3e4762a5	0.19471224
168	0x3d1f30ef	0.038865026
169	0xbdcd1b2c	-0.10014948
170	0xbdd37ac0	-0.10326147
171	0xbb3a0342	-0.002838329
172	0x3deae805	0.114700355
173	0xbd4eefe6	-0.050521754
174	0xbde0009e	-0.10937618
175	0xbd8c6c2e	-0.06856571
176	0xbe25a092	-0.16174534
177	0x3d9cfda2	0.07665564
178	0x3e1fb0a9	0.15594734
179	0xbe5a0394	-0.21290427
180	0x3d21ca6c	0.039499685
181	0x3ddb854b	0.10718783
182	0x3cdcc08a	0.026947279
183	0xbdb19790	-0.086714864
184	0x3dd87e30	0.10570943
185	0x3ddcd94a	0.10783632
186	0x3d958640	0.07300997
187	0xbd38c37f	-0.045108315
188	0xbd9564f1	-0.07294644
189	0x3d0f43eb	0.03497688
190	0xbd8f900d	-0.070098974
191	0xbd5a9ae3	-0.053370368
192	0x3e03b9cf	0.12863849
193	0x3e3113cf	0.17292713
194	0xbc91b8ac	-0.017788254
195	0xbd3d37ff	-0.04619598
196	0x3b6713b0	0.0035259537
197	0xbae40f3c	-0.001739956
198	0x3d284d7d	0.041089524
199	0x3d6681c7	0.05627611
200	0xbe507c06	-0.20359811
201	0xbdb1de33	-0.08684959
202	0x3e2f7c1f	0.17137192
203	0x3d9ee0c5	0.07757715
204	0xbc71759b	-0.014737512
205	0xbe055514	-0.13020736
206	0xbe113786	-0.14181337
207	0xbe4b6d2a	-0.19865862
208	0xbd9dc983	-0.07704451
209	0x3d8b98d5	0.0681626
210	0x3e00064b	0.125024
211	0x3e04e795	0.12978967
212	0xbe48e649	-0.19619097
213	0xbe010248	-0.12598526
214	0xbd3e62d7	-0.04648098
215	0x3e4bc3bd	0.19898887
216	0x3d212bc9	0.039348397
217	0xbd4149ce	-0.047189526
218	0x3da457d1	0.08024562
219	0xbd95b016	-0.07308976
220	0xbe00d8d4	-0.12582713
221	0x3e1e9cbf	0.15489481
222	0xbdd71bff	-0.10503387
223	0xbd3f6498	-0.046726793
224	0xbe60727b	-0.21918671
225	0x3e134e92	0.14385441
226	0x3e26a2ea	0.16273084
227	0x3d8f61f5	0.07001106
228	0xbe2223e6	-0.15834007
229	0xbe59c9b8	-0.21268356
230	0xbe3aa613	-0.18227415
231	0x3e059f2b	0.13048999
232	0x3e0f0488	0.13966572
233	0x3e2b148d	0.16707058
234	0x3de83e9e	0.11340068
235	0x3d47968c	0.048727557
236	0xbc794a0c	-0.015215408
237	0xbe23455d	-0.15944429
238	0xbe3991f0	-0.18122077
239	0xbe4f784f	-0.20260738
240	0x3db42326	0.087957665
241	0xbdcc57fb	-0.099777184
242	0xbd2d8c0c	-0.042369887
243	0xbdff3b57	-0.1246249
244	0xbd12834b	-0.035769742
245	0xbe215e23	-0.15758567
246	0xbe1a8796	-0.15090784
247	0x3d94e956	0.07271068
248	0xbd7ddd0f	-0.061978396
249	0x3e02ba89	0.1276647
250	0xbd7805e5	-0.060552496
251	0xbe27ecab	-0.16398875
252	0xbd249a16	-0.04018601
253	0xbdb0f2a2	-0.086400285
254	0xbd8ffd67	-0.070307545
255	0xbe4ff8ae	-0.20309708

business_tower.num_proj.0.bias f4 [32]
0	0x3e66bbd5	0.2253259
1	0x3dc60a68	0.096699536
2	0xbe0f6623	-0.14003806
3	0x3e208253	0.15674715
4	0xbd91549d	-0.07096217
5	0xbd005df4	-0.0313396
6	0xbe48e1e0	-0.19617414
7	0xbc32a7b3	-0.01090424
8	0x3e104f06	0.14092645
9	0x3cb7848e	0.022402074
10	0xbe079fc4	-0.1324454
11	0x3d884051	0.066528924
12	0xbda58363	-0.08081701
13	0x3e59f77a	0.21285811
14	0xbe415dca	-0.18883434
15	0xbd617ded	-0.055051733
16	0xbe589f09	-0.21154417
17	0xbd68cd3f	-0.056836363
18	0x3d9ee391	0.077582486
19	0x3e54a2b8	0.20765197
20	0x3d05d979	0.0326781
21	0x3e51febd	0.20507331
22	0x3d505ac0	0.050867796
23	0x3de420f3	0.11139097
24	0x3e266d05	0.16252525
25	0x3e36f706	0.1786767
26	0xbe1737ce	-0.14767382
27	0x3e4789e9	0.19486202
28	0x3dfd3e79	0.12365431
29	0xbdefba1f	-0.11705422
30	0xbdce299f	-0.10066532
31	0xbe1eb261	-0.15497734

business_tower.num_proj.1.weight f4 [32]
0	0x3f818371	1.0118238
1	0x3f7bd8d3	0.9837772
2	0x3f81a9aa	1.0129902
3	0x3f7e57ac	0.99352527
4	0x3f7a80e8	0.97852945
5	0x3f81e1e2	1.0147059
6	0x3f8022ff	1.001068
7	0x3f82a2d5	1.0205942
8	0x3f7ae457	0.9800467
9	0x3f7d0f79	0.98851734
10	0x3f7fb7a2	0.99889576
11	0x3f7f4b30	0.997241
12	0x3f7cb1cd	0.987088
13	0x3f820c6c	1.0160041
14	0x3f7f887f	0.9981765
15	0x3f814231	1.0098325
16	0x3f7f5088	0.99732256
17	0x3f8499ee	1.0359476
18	0x3f81452a	1.0099232
19	0x3f813b72	1.0096266
20	0x3f7e04a0	0.9922581
21	0x3f7c90db	0.9865853
22	0x3f81c347	1.0137719
23	0x3f7b29ed	0.9811085
24	0x3f7c7d25	0.98628455
25	0x3f7f60b2	0.9975692
26	0x3f7a45ef	0.9776296
27	0x3f810212	1.0078757
28	0x3f7b3083	0.981209
29	0x3f7cf51d	0.98811513
30	0x3f7ef0b9	0.99586064
31	0x3f834a5c	1.0257068

business_tower.num_proj.1.bias f4 [32]
0	0x3c27da9b	0.010244991
1	0xbc016612	-0.007897871
2	0x3caf0337	0.021363838
3	0xbc11d8df	-0.008901804
4	0xbcb74e5b	-0.02237623
5	0x3cb742af	0.022370664
6	0x3c04c9d7	0.008104763
7	0x3cc52bdd	0.024068767
8	0xbc31e60f	-0.010858073
9	0xbb527ae5	-0.0032116708
10	0xb9b4280c	-0.00034362113
11	0x3816e85d	3.5979192e-05
12	0xbc158d42	-0.009127917
13	0x3c86db91	0.01646212
14	0x3bbf9003	0.005846025
15	0x3c8ff8c4	0.017574675
16	0x3be028ab	0.0068407855
17	0x3d0b129c	0.033953294
18	0x3c4f00c5	0.012634461
19	0x3be49675	0.0069759437
20	0xba897aaf	-0.0010488833
21	0xbbfee7e6	-0.0077791093
22	0x3c68750d	0.014188063
23	0xbc453d25	-0.012038504
24	0xbc0d2e2c	-0.008616965
25	0x38f71978	0.00011782622
26	0xbcaf4ea8	-0.02139981
27	0x3b07d66c	0.002072717
28	0xbb895d13	-0.0041920035
29	0xbc1aea11	-0.00945522
30	0x3c21ce27	0.009875811
31	0x3cfa7c63	0.03057689

business_tower.embeddings.business_type.weight f4 [4, 32]
0	0x3ea4ccef	0.32187602
1	0x3ee445ba	0.44584447
2	0x3fc2d88b	1.5222334
3	0x3fa3d327	1.2798814
4	0xbdedc862	-0.116104856
5	0x3faf5859	1.3698837
6	0xbef61f6f	-0.48070857
7	0xbf7d6936	-0.98988664
8	0xbfae8834	-1.3635316
9	0x3c066099	0.008201742
10	0xbecfb392	-0.4056669
11	0xbf35f3a1	-0.71074873
12	0xbeb2e654	-0.3494135
13	0x3ec256b0	0.37956762
14	0x3f7fb336	0.9988283
15	0x3fa3256a	1.2745793
16	0x3f75833b	0.95903367
17	0x3dd3e350	0.10346091
18	0x3f5421c6	0.82864034
19	0x4005d50d	2.0911286
20	0x3f4b80a6	0.79493177
21	0x3e8eecf3	0.27915153
22	0x3e3ed4fa	0.18635932
23	0x3eb586e7	0.35454485
24	0x3db98a1a	0.09059544
25	0x3fdee6fe	1.7414243
26	0xbfa1f88f	-1.2653979
27	0x3ec727c5	0.3889753
28	0x3eaf77e3	0.34271154
29	0xbfbaabe4	-1.4583707
30	0xbfbf18eb	-1.4929479
31	0xbe629742	-0.22128013
32	0x3e6789f6	0.22611222
33	0xbd9e81a0	-0.07739568
34	0x3f7c3389	0.98516136
35	0x3fa39fbe	1.2783124
36	0x3e961382	0.29311758
37	0x3f5d28e6	0.8639053
38	0xbf4f7408	-0.81036425
39	0xbfb75bd3	-1.4324898
40	0x3ee8cf3f	0.45470616
41	0x3f06e0fd	0.52687055
42	0xbfadb79e	-1.357166
43	0x3ffa8c59	1.9574081
44	0x3fe21537	1.7662724
45	0xbf7a3ca5	-0.97748786
46	0xbf9e8df2	-1.2387068
47	0xc01346e1	-2.301201
48	0xbbbc6e82	-0.0057504782
49	0xbf5a2d9f	-0.8522586
50	0xbfd4e25b	-1.6631578
51	0x3e9c2bc3	0.30502138
52	0x3f97a591	1.1847402
53	0x3ea3ebfc	0.3201598
54	0xbec3bb95	-0.3822905
55	0x403714fa	2.8606553
56	0x3f514258	0.8174186
57	0x3f4c94b5	0.7991441
58	0x3ff0ba83	1.8806919
59	0x3f16b2a6	0.58866346
60	0x3d853342	0.06503917
61	0xbfcc701c	-1.5971713
62	0xbedf147b	-0.43570313
63	0x3f134f27	0.5754265
64	0x3eaece1a	0.34141618
65	0xc0463137	-3.0967538
66	0xbfbabd2c	-1.4588981
67	0xbfb77c2d	-1.433477
68	0xbf1bc0d1	-0.6084109
69	0xbe83a20a	-0.25709563
70	0xbf3662b3	-0.71244353
71	0xbec87835	-0.3915421
72	0x3f04edab	0.5192515
73	0xbf4ffeb9	-0.8124805
74	0xbef22af2	-0.4729839
75	0x3f191b85	0.59807616
76	0xbe916fd6	-0.28405637
77	0x3f42c07a	0.76074946
78	0xbf43d4c5	-0.76496536
79	0xbf728b37	-0.94743675
80	0x3c4bb839	0.012434059
81	0x3d99d6cc	0.075116724
82	0x3f3c90d6	0.736585
83	0x3fac9ec0	1.3485947
84	0x3e075533	0.13216095
85	0xc01cde35	-2.4510624
86	0x3edabedd	0.42723742
87	0x3ff2fc0c	1.8983169
88	0xbf3c0305	-0.7344211
89	0x3d541473	0.051777314
90	0xbfc29636	-1.5202091
91	0x3eb084bf	0.34476277
92	0x3f3e2306	0.7427219
93	0x3fb4d36d	1.4127022
94	0x3f2e3348	0.68047
95	0xbe067220	-0.13129473
96	0x3f6ee69a	0.9332062
97	0x3f050fa5	0.51976997
98	0xbc418d92	-0.011813538
99	0xbfb8b2a3	-1.4429516
100	0xbf191e62	-0.59811985
101	0xbe43e933	-0.19131927
102	0x3e470ffa	0.19439688
103	0xbf9fcd19	-1.2484466
104	0xbed0abfb	-0.4075621
105	0x3fb9f70f	1.4528521
106	0x3eababfa	0.33529645
107	0xbf7fb765	-0.9988921
108	0xbf2e6102	-0.6811677
109	0xbeecdd25	-0.4626247
110	0xbfa51239	-1.2896186
111	0x3f899805	1.0749518
112	0xbf87fd50	-1.062418
113	0xbfff87f3	-1.9963363
114	0x3e95b624	0.29240525
115	0x3edeb502	0.43497473
116	0x3c1fa921	0.009744913
117	0xbf83cd4d	-1.0297028
118	0x3e65f384	0.22456175
119	0xbf40b6cb	-0.7527892
120	0x3fae3708	1.3610544
121	0xbea33def	-0.3188319
122	0xbf6a7c1b	-0.9159562
123	0x3ff5b9e4	1.9197354
124	0xbfd2717f	-1.6440886
125	0x400917d1	2.1420786
126	0xbf28a452	-0.6587573
127	0x3de013df	0.1094129

business_tower.embeddings.target_market.weight f4 [5, 32]
0	0xbe61c088	-0.22046101
1	0x3f362337	0.71147484
2	0x3eaecf31	0.3414245
3	0x3fcb3e2d	1.587835
4	0xbeb28a6c	-0.34871233
5	0xbeea57ee	-0.4577021
6	0xbf9da5d0	-1.2316227
7	0xbf1908d8	-0.5977912
8	0xbe901543	-0.2814122
9	0x3d583e98	0.05279407
10	0x3ed97c32	0.42477566
11	0x3ef6f703	0.4823533
12	0x3ef9ce4e	0.4879021
13	0x3f80fdf3	1.0077499
14	0xbf183f93	-0.59472007
15	0x3ec8eeb5	0.3924462
16	0x3f52944d	0.8225754
17	0xbf62b767	-0.885611
18	0x3fbd5d16	1.4794033
19	0x3f56b860	0.83875084
20	0xbe4cc0f0	-0.19995475
21	0x3f7e961e	0.9944781
22	0x3f3847b3	0.71984404
23	0xbe0948ba	-0.13406649
24	0xbfb3fc12	-1.4061301
25	0xc01707a8	-2.3598423
26	0xbe94a984	-0.2903558
27	0xbe08989f	-0.1333947
28	0xbe209f87	-0.15685855
29	0x3f91a372	1.1378005
30	0xbe80344e	-0.25039905
31	0x3fd5b748	1.6696558
32	0xbf091419	-0.5354629
33	0xc00a71fa	-2.1632066
34	0xbfd50c1b	-1.6644319
35	0xbf2c2050	-0.67236805
36	0x3eb97101	0.36219028
37	0xbecb66c4	-0.3972684
38	0x3eff32a0	0.4984331
39	0xc0172d5c	-2.3621435
40	0xbf0e3e4d	-0.55563813
41	0xbf16bf68	-0.5888581
42	0x3fa13ccb	1.2596678
43	0x3fa45aad	1.2840172
44	0xbf95c3ec	-1.1700416
45	0xbda1e808	-0.079055846
46	0xbf791646	-0.9729961
47	0x3fbc6854	1.4719338
48	0x3fb4e482	1.4132235
49	0xbfa7c5ba	-1.3107216
50	0xbfa7f165	-1.3120543
51	0xbf9f5496	-1.2447689
52	0xbfcaf3cb	-1.585565
53	0xc022e889	-2.5454428
54	0x3fb0512a	1.3774769
55	0xbf0b79a4	-0.54482484
56	0x3f3d0952	0.73842347
57	0xbf5615bb	-0.8362691
58	0x3d37feb5	0.044920642
59	0x3fab397d	1.3376919
60	0x3f6b87f3	0.9200432
61	0xbec38fd8	-0.38195682
62	0xbfc75d79	-1.55754
63	0xbf4e025c	-0.8047235
64	0xbf33cf95	-0.7023862
65	0xbec82e26	-0.39097708
66	0x3f754a99	0.9581695
67	0xbf533875	-0.8250802
68	0xc01838ff	-2.3784788
69	0x3e9ec6b4	0.31010973
70	0x3ff0a957	1.8801678
71	0x3f8c9e6c	1.0985847
72	0xbf06634d	-0.5249527
73	0xbf3f0593	-0.7461788
74	0x3e2a1df7	0.16612993
75	0xbe6d74ef	-0.23189138
76	0x3f037c0a	0.51361144
77	0x3fd7c324	1.6856427
78	0x3fcba495	1.5909601
79	0xbed39bfc	-0.41329944
80	0x3fee8e3e	1.8637159
81	0xbf8bb007	-1.0913094
82	0x3f5fec6b	0.8747012
83	0xbf587242	-0.84549344
84	0x3f83d77f	1.0300139
85	0xbf5f37cd	-0.8719452
86	0xbf11f928	-0.5702081
87	0x3ea8e4c5	0.32987037
88	0x3f8eed6d	1.1166207
89	0xbf9b8767	-1.2150697
90	0x4025e69c	2.5922003
91	0xbdd1b3e9	-0.10239393
92	0xbdb04f1a	-0.086088374
93	0x3fa1946d	1.2623421
94	0x3f5aeb88	0.8551564
95	0xbf74f10c	-0.9568031
96	0x3d795aa9	0.060877476
97	0xbead5c9d	-0.3385972
98	0xc00f0a5f	-2.235008
99	0xbee03dd3	-0.43797168
100	0x3edc1cf1	0.4299083
101	0xbeca12f2	-0.3946758
102	0xbe71c503	-0.2361031
103	0xbecde1af	-0.40211245
104	0x3f5df7fd	0.86706525
105	0xbf87f834	-1.062262
106	0xbfa8dce6	-1.3192413
107	0x3f3624e5	0.71150047
108	0x3eb99487	0.3624613
109	0x3f1aa3f7	0.6040644
110	0x3f6cb350	0.9246111
111	0x3f2de7dc	0.67931914
112	0x3e7e5011	0.2483523
113	0x3debe10a	0.11517532
114	0x3df0ff9c	0.117675036
115	0x3ef1b68d	0.47209588
116	0x3e8bd7d7	0.2731311
117	0xbf16ad57	-0.58858246
118	0x3f10dfef	0.56591696
119	0xbf49a79f	-0.78771394
120	0xbe4c2ca1	-0.199389
121	0xbfae1641	-1.3600541
122	0xbf07678e	-0.52892387
123	0x3d6e6fca	0.05821208
124	0x3eae5c35	0.34054723
125	0x3fb999f1	1.4500104
126	0xbeb54e11	-0.35411122
127	0xbe82141e	-0.25405973
128	0xbeee7f6a	-0.46581584
129	0xbf390cc8	-0.7228513
130	0xbe350a84	-0.17679793
131	0xbea19a41	-0.31563
132	0xbf247c3b	-0.6425206
133	0xbf470850	-0.7774706
134	0x3fa81c32	1.3133605
135	0xbf72efe0	-0.9489727
136	0xbe87602d	-0.26440564
137	0x3f6e1b27	0.9301018
138	0xbeeccbcc	-0.46249235
139	0xbf74269b	-0.9537141
140	0xbf35be93	-0.7099392
141	0x400bb06b	2.1826427
142	0xbf257b2f	-0.6464109
143	0x3ee34012	0.4438482
144	0x3f595bba	0.8490559
145	0xbfd8f3e1	-1.6949426
146	0x3f970e62	1.1801264
147	0xc0385df9	-2.8807356
148	0xbebffa7e	-0.37495798
149	0xbf3a1d03	-0.7270052
150	0xbfccbcf9	-1.599517
151	0xbeb7428d	-0.35792962
152	0x3d445773	0.04793496
153	0x3f33d262	0.70242894
154	0x3feb30ab	1.8374227
155	0xbff35aa4	-1.9012036
156	0xbfb0aba2	-1.3802378
157	0x3f0b53c7	0.5442471
158	0x3ee6bcab	0.45065817
159	0xc0125f22	-2.2870564

business_tower.embeddings.temperature_control_needed.weight f4 [4, 32]
0	0xbe090250	-0.13379788
1	0xbd6fbc95	-0.058529455
2	0x3e00b33f	0.12568377
3	0xbf0d646c	-0.55231357
4	0x3d987658	0.07444447
5	0xbe18cbd4	-0.14921504
6	0xbf0d4f3f	-0.55199045
7	0xbdbf3bce	-0.09337579
8	0xbf839396	-1.0279415
9	0x3ecef9d6	0.40424985
10	0x40090f84	2.141572
11	0xbf03df5a	-0.5151268
12	0x3f8a85a6	1.0822036
13	0x3f9fe818	1.2492704
14	0x3f7b4e91	0.9816676
15	0x3e683c6a	0.22679296
16	0x3efc3015	0.49255434
17	0xbf03387b	-0.5125806
18	0x3e99d86f	0.30047938
19	0x3d9e54a1	0.077309854
20	0x3f25bfe9	0.64745957
21	0xbedd4ba9	-0.43221787
22	0x3f9634ee	1.1734903
23	0x3f3367bd	0.7008017
24	0x3f2ac818	0.6671157
25	0xbf4d9f55	-0.80321246
26	0xbfb03fd8	-1.3769484
27	0xbee1b56e	-0.44083732
28	0x3e111773	0.14169101
29	0x3f8dd0f4	1.1079392
30	0x3f0ddd5b	0.55415887
31	0x3fca5e1b	1.5809969
32	0xbf99a715	-1.2004114
33	0x3f73490f	0.95033354
34	0xbfc79fb2	-1.559561
35	0x3f2a6445	0.6655925
36	0xbd2b71c5	-0.041856546
37	0x3d5a0769	0.053229723
38	0xbfd64a69	-1.6741458
39	0xbf3f8572	-0.74812996
40	0x3f9eb7aa	1.23998
41	0x3ed49e76	0.41527146
42	0xbc8bfacd	-0.017087365
43	0xbdc61f3e	-0.09673928
44	0xbfa6f37b	-1.3043054
45	0x3f2cc97e	0.6749495
46	0xbd8b3818	-0.067978084
47	0x3e96debc	0.29466808
48	0xbea9cdeb	-0.33164915
49	0xbe10ce86	-0.14141282
50	0x3f969f86	1.1767433
51	0xbf9ecd59	-1.2406417
52	0x3e919524	0.28434098
53	0xbd851921	-0.064989336
54	0x3fa682fc	1.3008723
55	0xbfc245bc	-1.5177531
56	0xbe97a892	-0.29620796
57	0x40079d3d	2.118972
58	0xbdf86184	-0.12127975
59	0x3f153e5f	0.58298296
60	0x3f496334	0.78666997
61	0x3f461418	0.7737441
62	0xbdae222d	-0.08502612
63	0x3bb5a72a	0.005543609
64	0x3f2daa69	0.6783815
65	0x3deee657	0.116650276
66	0x3eb2953f	0.3487949
67	0x3dfee831	0.12446631
68	0x3e972091	0.29517034
69	0x3fac9c44	1.3485188
70	0x3fbbda2e	1.4675958
71	0x3f859830	1.0437069
72	0x3f5032e8	0.81327677
73	0xbf573fc9	-0.84081703
74	0x3f629369	0.8850618
75	0xbecb2670	-0.39677763
76	0xbeb71cb0	-0.35764074
77	0xbf941857	-1.1569928
78	0xbfe08752	-1.7541296
79	0xc0227781	-2.538544
80	0x3dd478fa	0.10374637
81	0xbf4b05f6	-0.7930597
82	0x3ebbb83d	0.36664
83	0x3fc1402b	1.5097708
84	0xbf62465b	-0.88388604
85	0x3f04fd31	0.5194884
86	0x3eba9b07	0.364464
87	0x3e800ad1	0.25008252
88	0x3f97d716	1.1862514
89	0x3fb3cef4	1.4047532
90	0x3f4dc22c	0.8037441
91	0x3efaf3bd	0.49014083
92	0xbe2b4a77	-0.16727625
93	0xbf868818	-1.0510283
94	0xbdc87bd6	-0.09789245
95	0xbf6f1eff	-0.9340667
96	0x3e70d69f	0.23519371
97	0x3dbbed09	0.0917607
98	0xbeb39cde	-0.35080618
99	0x3f597a91	0.84952646
100	0x3e52450c	0.20534152
101	0x3ec3bde6	0.3823082
102	0x3f9da95f	1.2317313
103	0x3f9cf297	1.2261533
104	0x3f34e3a5	0.7065986
105	0xbd5f0ac2	-0.05445362
106	0xbfbeacd4	-1.4896493
107	0xbfc2bb97	-1.5213498
108	0x3ea97127	0.3309414
109	0xbfba873a	-1.4572518
110	0x3ff2d818	1.8972197
111	0xbd3a33e9	-0.04545966
112	0xbe98f38e	-0.29873317
113	0x3fb2413e	1.392616
114	0xbf6b4dd0	-0.9191561
115	0xbf4567dc	-0.771116
116	0xbed2c73b	-0.41167626
117	0x3f8c800a	1.0976574
118	0x3e84a65b	0.2590817
119	0xbdd8870b	-0.105726324
120	0x3f436d9c	0.76339126
121	0xbf906602	-1.128113
122	0x3f7f257e	0.99666584
123	0xbf96dd6c	-1.1786323
124	0x3f78b2bc	0.97147727
125	0xbf8d96d5	-1.1061655
126	0xbf4b9354	-0.7952168
127	0xbe5ec8e6	-0.21756324

business_tower.embeddings.dimensional_weight_class.weight f4 [4, 32]
0	0x3aff46ad	0.0019476019
1	0xbe56b91f	-0.20969056
2	0x3f99a85c	1.2004504
3	0x3f2cded5	0.67527515
4	0xbff1cea5	-1.8891188
5	0x3e46e36a	0.19422689
6	0x3fccf5b8	1.6012487
7	0xbf84b1f6	-1.0366809
8	0xbf3f92c9	-0.7483335
9	0xbec4b87d	-0.38422003
10	0x3e12e06f	0.14343427
11	0xbda65bc0	-0.08122969
12	0x3f901489	1.1256267
13	0x3d264b54	0.040599182
14	0xbd845349	-0.06461198
15	0x405c6a4d	3.443988
16	0xbf8e62b3	-1.1123871
17	0xbede341b	-0.43399128
18	0xbc791c09	-0.015204438
19	0x3f0adeda	0.54246294
20	0x3e0005c3	0.12502198
21	0xbf603150	-0.87575245
22	0x3f9c5ff5	1.2216784
23	0x3ea74008	0.3266604
24	0xbdd6acf3	-0.10482206
25	0x401e70b8	2.4756298
26	0x3f139e36	0.57663286
27	0x3e16c4e0	0.1472354
28	0xbfa8102a	-1.3129933
29	0xbf1b1764	-0.60582566
30	0x3f250904	0.6446688
31	0xbe7d8974	-0.24759465
32	0xbfb1fbe5	-1.3904997
33	0xbdbd0289	-0.09228999
34	0x3f0712a0	0.52762794
35	0x3f9591e2	1.1685145
36	0x400c3093	2.1904647
37	0x3fe25460	1.7681999
38	0x3e83e1a6	0.25758094
39	0xc01b57db	-2.4272373
40	0xbeb3241c	-0.34988487
41	0xbfac3384	-1.3453221
42	0xbedcf515	-0.43155733
43	0xbf1406f1	-0.5782309
44	0x3fe8de77	1.8192891
45	0xbf37f583	-0.71858996
46	0x3ecf7d0e	0.40525097
47	0xbf12e1a5	-0.57375556
48	0x3de45729	0.11149437
49	0xbea465bc	-0.32108867
50	0x3f5a2938	0.85219145
51	0xbf893fe7	-1.0722626
52	0xbf817ab9	-1.0115577
53	0xbf7e40b9	-0.9931751
54	0x4039c416	2.9025931
55	0x3fba5b78	1.4559164
56	0xbf10f486	-0.56623113
57	0xbf72e15e	-0.94875133
58	0xbf3e1fe1	-0.74267393
59	0x3e12d4de	0.14339015
60	0xbe81de59	-0.2536495
61	0xbf41d07d	-0.7570875
62	0x3f9d7471	1.230116
63	0x3f827378	1.0191488
64	0x3f818e2a	1.012151
65	0x3f2366c4	0.6382868
66	0x3f61877a	0.88097346
67	0x3f5017af	0.8128614
68	0x3e4e42b4	0.20142633
69	0xbf232385	-0.63726074
70	0xbf5fdeb6	-0.87449205
71	0xbfc7c1b5	-1.560599
72	0xbf4ac779	-0.7921062
73	0x3f115740	0.5677376
74	0x3f445e85	0.76706725
75	0x3f0eea9d	0.5582674
76	0x3fa66c6f	1.3001841
77	0x3fe0bb52	1.7557166
78	0x3e5c6a35	0.2152489
79	0x3fbe2661	1.4855462
80	0x3f0e29ed	0.55532724
81	0x3eae7309	0.3407214
82	0x3f5762ea	0.84135306
83	0x40021e7f	2.0331113
84	0x3ec1d41a	0.37857133
85	0x3ef62a15	0.4807898
86	0xbcc41f6e	-0.023940768
87	0x3f8b71ed	1.0894142
88	0xbf02ac73	-0.51044387
89	0xbf57759c	-0.8416383
90	0xbe65053e	-0.22365281
91	0x401106f1	2.2660487
92	0xbf494ca6	-0.7863258
93	0xbe87d2e3	-0.2652808
94	0x3fc7def1	1.5614911
95	0xbe8c629a	-0.27418977
96	0xbdc86f09	-0.09786803
97	0x3f877a60	1.0584221
98	0x3fbbeb12	1.4681113
99	0x3f61c11d	0.8818529
100	0xbe7a596b	-0.24448173
101	0x3f0bb6e1	0.54575926
102	0xbd687b9d	-0.05675851
103	0xbf0cc2a9	-0.5498453
104	0xc001e081	-2.0293276
105	0x3f04a0ad	0.5180767
106	0xbf358b92	-0.7091609
107	0xbdcb35fd	-0.09922407
108	0xbe8b7d0d	-0.27243844
109	0x3fa5b6bf	1.2946395
110	0xbfb96e45	-1.4486777
111	0xbea441c3	-0.32081422
112	0x3de49486	0.11161141
113	0xbfba4a2a	-1.4553883
114	0xbfdaa856	-1.7082622
115	0xbf083f51	-0.53221613
116	0x3f0ba294	0.5454495
117	0xbfacef1b	-1.3510469
118	0x3fa13ad0	1.2596073
119	0xc001fe77	-2.0311563
120	0x3fb3a7ff	1.4035643
121	0x3e28f504	0.16499716
122	0xbf92823f	-1.1445998
123	0x3f2078f5	0.62684566
124	0xbf54ae92	-0.83078873
125	0xbef6734d	-0.48134843
126	0x3ea2ce47	0.31798002
127	0x3f344215	0.70413333

business_tower.bin_proj.0.weight f4 [32, 34]
0	0xbda6eafe	-0.0815029
1	0x3b9fec51	0.004880466
2	0xbd094be7	-0.03351965
3	0xbe2bc58b	-0.16774575
4	0xbd0e18b7	-0.03469154
5	0xbc404d53	-0.0117371855
6	0xbd6e7c13	-0.058223795
7	0x3e201d73	0.15636234
8	0xbd18bc29	-0.03728882
9	0x3dc52015	0.0962526
10	0x3d139791	0.036033217
11	0xbe14b39e	-0.14521644
12	0x3d23b211	0.03996474
13	0x3e0c0d04	0.1367684
14	0xbe00c63b	-0.12575619
15	0xbde3fa9c	-0.11131784
16	0x3e1e4d78	0.1545924
17	0x3e08abcf	0.1334679
18	0xbdda9758	-0.10673398
19	0x3dd7046e	0.10498892
20	0xbcd60300	-0.026124477
21	0xbe28aa0a	-0.16471115
22	0x3b366ab9	0.0027834608
23	0x3d521423	0.051288735
24	0xbd5df87c	-0.05419205
25	0x3d742be4	0.05961217
26	0xbe0f0eaf	-0.13970445
27	0x3dd91962	0.106005445
28	0x3e0f10c8	0.13971245
29	0x3d9cfa27	0.076649
30	0x3c3cf102	0.01153207
31	0x3d294462	0.04132498
32	0xbdfa3db3	-0.122187994
33	0xbd60c7bf	-0.054877993
34	0xbc8c09e5	-0.017094562
35	0xbdb6f962	-0.08934285
36	0xbdf78b3f	-0.12087106
37	0x3df1f623	0.11814525
38	0x3de65686	0.11246972
39	0xbe232a71	-0.15934159
40	0x3d4b9395	0.049701292
41	0x3d90fa25	0.07078961
42	0x3e260eb7	0.16216551
43	0x3dc799e5	0.0974615
44	0x3e21ce5f	0.1580138
45	0xbd512cbd	-0.051068056
46	0x3dea94af	0.114541404
47	0x3e11c035	0.14233477
48	0xbe28038f	-0.16407607
49	0xbe0531e0	-0.13007307
50	0x3d1cd7d9	0.038291786
51	0x3dc833fe	0.09775542
52	0xbd952d46	-0.07284026
53	0x3c7194fd	0.014744994
54	0x3c161fa7	0.00916282
55	0x3d6a09aa	0.057138123
56	0xbdc73666	-0.097271726
57	0x3da91fe7	0.08258038
58	0x3ded81b1	0.11597002
59	0xbdfe40e2	-0.12414719
60	0x3bf23029	0.007390995
61	0x3be44b6a	0.006966998
62	0x3d57ae67	0.052656557
63	0x3e2b8216	0.16748843
64	0x3d564326	0.05231013
65	0xbce689c4	-0.028141864
66	0x3e1e2b78	0.1544627
67	0xbd9fd90e	-0.07805072
68	0xbd526fb2	-0.051376052
69	0x3c7abf89	0.015304455
70	0xbe00e68d	-0.12587948
71	0x3c6239e7	0.01380775
72	0xbdff5a7a	-0.12468429
73	0x3c982c42	0.018575791
74	0x3c4883af	0.012238427
75	0x3ca4769b	0.020076087
76	0xbe196a9e	-0.14982077
77	0xbe2b3d6d	-0.16722651
78	0x3da6da42	0.08147098
79	0x3e12a7c0	0.14321804
80	0xbe18b299	-0.1491188
81	0x3d51e566	0.051244162
82	0xbdff40d2	-0.12463535
83	0x3be39756	0.006945531
84	0x3e262881	0.16226389
85	0x3e03688f	0.12832855
86	0xbe0480fa	-0.12939826
87	0x3dce1773	0.10063066
88	0x3db070e8	0.08615285
89	0xbab0f782	-0.0013501497
90	0x3e245703	0.16048817
91	0xbd84e5bf	-0.06489133
92	0xbd2c63d0	-0.042087376
93	0xbdaf286e	-0.08552633
94	0x3cc2312e	0.023705091
95	0x3d17fd06	0.037106536
96	0x3cb83ad4	0.022488989
97	0xbdb91128	-0.090364754
98	0xbd904f36	-0.07046358
99	0x3d62f9b7	0.055413928
100	0xbe1e09b7	-0.15433393
101	0xbcc44703	-0.023959642
102	0xbb7d1aff	-0.0038620827
103	0xbd95590c	-0.07292375
104	0x3d86da1a	0.06584568
105	0x3c71ed87	0.014766104
106	0x3de7019a	0.11279602
107	0xbc31deb8	-0.010856323
108	0xbdde3265	-0.10849456
109	0x3df281d0	0.11841166
110	0x3cd218f9	0.025646674
111	0xbd47134c	-0.048602387
112	0xbdf3158f	-0.11869346
113	0x3d269912	0.040673323
114	0xbe26ba33	-0.16281967
115	0x3d334952	0.043771096
116	0x3da3fbd3	0.08007016
117	0xbe197932	-0.14987639
118	0xbdea8f08	-0.11453062
119	0xbdfdd33d	-0.12393806
120	0x3e16af01	0.14715196
121	0x3e0cfa2f	0.13767312
122	0x3c144443	0.009049478
123	0x3e22f5c2	0.15914062
124	0xbd7c7f01	-0.061644558
125	0xbe31525a	-0.17316571
126	0x3d684e9f	0.056715604
127	0x3d80407a	0.06262298
128	0x3e2b2c35	0.16716082
129	0xbb345b83	-0.0027520366
130	0x3e0b39ef	0.13596319
131	0x3dd84c5e	0.10561441
132	0x3df996f3	0.121869944
133	0xbe2dbf4b	-0.16967504
134	0x3e0c626e	0.13709423
135	0xbe1919ff	-0.14951323
136	0x3e23696c	0.15958184
137	0xbb6f0a3c	-0.0036474606
138	0xbe182a35	-0.1485985
139	0x3d366d3d	0.04453777
140	0xbd054767	-0.032538798
141	0xbe1769c5	-0.14786442
142	0xbd4b16b3	-0.049582195
143	0x3c87b5fc	0.01656627
144	0x3e04dd6b	0.12975089
145	0xbd39c1f4	-0.045350984
146	0x3dd528f7	0.10408204
147	0x3cf656ca	0.030070681
148	0x3c2756bc	0.01021355
149	0x3d14a793	0.036292624
150	0xbddce87f	-0.107865326
151	0xbe0ff4a9	-0.14058174
152	0xbd6257ee	-0.055259638
153	0xbe211fe7	-0.15734826
154	0xbdbc6c78	-0.09200376
155	0x3bf3ddd1	0.007442214
156	0xbdeb166f	-0.11478888
157	0xbd943afc	-0.07237813
158	0xbcbc0536	-0.022951704
159	0x3930e5d1	0.00016870281
160	0xbdc98c4e	-0.09841214
161	0x3cab429c	0.020905785
162	0xbd0873e8	-0.03331366
163	0x3d3ac4d7	0.045597877
164	0x3c8ac521	0.016939702
165	0xbdb1f10e	-0.08688556
166	0xbd659e4a	-0.05605916
167	0xbc0cdc1c	-0.0085974
168	0xbdcde608	-0.100536406
169	0x3d01d648	0.031698495
170	0xbc3cb7ea	-0.011518458
171	0x3d7fc5cf	0.062444504
172	0x3d36c7fa	0.044624306
173	0x3e0ff154	0.14056903
174	0xbbae986b	-0.005328228
175	0xbdf8c7f8	-0.12147516
176	0x3d8f9ee0	0.07012725
177	0xbdeebd2b	-0.11657175
178	0xbc76bbdb	-0.015059437
179	0xbd49835c	-0.04919754
180	0xbd91b2bc	-0.07114169
181	0xbd84636d	-0.064642765
182	0x3e1eccab	0.15507762
183	0x3dda843e	0.106697544
184	0x3d3dbd75	0.04632326
185	0x3e260049	0.16211046
186	0xbe146097	-0.14489971
187	0x3d0affea	0.033935465
188	0x3e01caff	0.12675093
189	0x3de7a755	0.11311213
190	0xbdf9f00c	-0.122039884
191	0x3d8f6cc3	0.070031665
192	0xbddf79f7	-0.10911935
193	0xbcd55176	-0.02603982
194	0xbd1cc349	-0.038272176
195	0xbe28279c	-0.1642136
196	0xbe0eb4e3	-0.1393619
197	0xbdd19583	-0.10233595
198	0x3d8c1996	0.06840818
199	0x3db16f18	0.086637676
200	0xbe147591	-0.14497973
201	0xbd4dbc70	-0.050228536
202	0x3c1ba439	0.009499603
203	0xbe2abcb6	-0.1667355
204	0x3dcb5c2a	0.09929688
205	0x3e22ed93	0.1591094
206	0x3d0c3d83	0.03423835
207	0xbdee4736	-0.11634676
208	0x3d33667c	0.04379891
209	0x3d79a437	0.060947623
210	0x3e091247	0.13385879
211	0xbdb5e8c6	-0.08882289
212	0xbe18bdac	-0.14916104
213	0x3da4dbc1	0.08049727
214	0x3c467ae4	0.01211426
215	0xbd5c386e	-0.053764753
216	0xbd9270af	-0.07150399
217	0xbda27cd3	-0.079339646
218	0x3e0f848a	0.14015403
219	0xbcea2d0a	-0.02858593
220	0x3e03fe2c	0.12889928
221	0x3e217ed8	0.15771043
222	0x3d1db3e3	0.03850163
223	0x3d248c30	0.040172756
224	0xbb36a955	-0.0027871926
225	0x3dfc212b	0.12311014
226	0xbe1d21f2	-0.1534498
227	0x3d6f761c	0.058462247
228	0xbcc97015	-0.024589578
229	0x3d99c37e	0.0750799
230	0x3c04dcde	0.0081092995
231	0xbd63b3f8	-0.055591553
232	0xbcb6d1e2	-0.022316877
233	0x3dcf0a06	0.10109334
234	0xbde82848	-0.11335808
235	0xbdc7e427	-0.097603135
236	0xbd05b911	-0.032647196
237	0xbd8aecc5	-0.067834415
238	0x3d7b7f46	0.061400674
239	0x3ddb8876	0.10719387
240	0xbcf3ddb2	-0.029768799
241	0x3e1af02f	0.15130685
242	0xbda1aef3	-0.07894697
243	0xbdcb90f3	-0.09939756
244	0xbd98023c	-0.07422301
245	0xbdfb29a3	-0.12263801
246	0xbe034285	-0.12818344
247	0xbe258a0f	-0.16165946
248	0xbe21641f	-0.1576085
249	0x3d1f3d46	0.038876794
250	0x3dcbe73b	0.09956213
251	0x3e16e25a	0.14734784
252	0x3e11171b	0.1416897
253	0xbc790425	-0.015198742
254	0x3ca33ba8	0.019925907
255	0xbde3ffce	-0.11132775

business_tower.bin_proj.0.bias f4 [32]
0	0x3d0b655b	0.034032207
1	0xbc9d77a5	-0.01922209
2	0xbc34e656	-0.0110412445
3	0x3c0dddc1	0.008658827
4	0x3e1cd0b2	0.15313986
5	0x3cd98aa9	0.026555376
6	0xbdd60ed2	-0.104520455
7	0xbd8f0d2e	-0.06984936
8	0x3dae5550	0.08512366
9	0x3d5c8aa4	0.053843156
10	0x3b9add0e	0.004726059
11	0xbce98c6a	-0.028509337
12	0xbd7b3e7c	-0.061338887
13	0xbd917e7e	-0.071042046
14	0xbdbb64d3	-0.0915009
15	0x3cbd41e0	0.0231027
16	0x3d357d4a	0.044308938
17	0x3e012735	0.12612613
18	0xbd30c228	-0.04315391
19	0x3c742fe9	0.014904001
20	0x3e01c125	0.12671335
21	0x3d7e7428	0.062122494
22	0x3c2fb3b5	0.010723998
23	0x3d685a89	0.056726966
24	0x3b74a5a6	0.003733018
25	0xbe10e53e	-0.14149949
26	0x3be4e734	0.0069855694
27	0xbd2d05c2	-0.04224182
28	0x3e27874f	0.1636021
29	0x3e1e213a	0.15442362
30	0x3ce3bb2c	0.027799211
31	0x3e1fa41c	0.15589947

business_tower.bin_proj.1.weight f4 [32]
0	0x3f7c2d63	0.98506755
1	0x3f7f832e	0.9980954
2	0x3f7f2d4b	0.99678487
3	0x3f7e5d18	0.993608
4	0x3f80ec71	1.0072156
5	0x3f815f23	1.0107158
6	0x3f8019cd	1.0007874
7	0x3f7da7e0	0.9908428
8	0x3f7f72dc	0.99784636
9	0x3f7f972c	0.99840045
10	0x3f7fe67c	0.99961066
11	0x3f7e5199	0.9934326
12	0x3f809a66	1.0047119
13	0x3f807108	1.0034494
14	0x3f7f7327	0.99785084
15	0x3f7f49b9	0.99721867
16	0x3f7fa606	0.99862707
17	0x3f7d0910	0.98841953
18	0x3f7e1683	0.992531
19	0x3f81e0bb	1.0146707
20	0x3f81eb88	1.0150003
21	0x3f7dec24	0.99188447
22	0x3f813c38	1.0096502
23	0x3f804a1c	1.0022616
24	0x3f7e982d	0.9945095
25	0x3f7f449c	0.99714065
26	0x3f7eeb31	0.99577624
27	0x3f7efd4f	0.9960527
28	0x3f8093ae	1.0045068
29	0x3f7fd981	0.9994126
30	0x3f7cfbb7	0.98821586
31	0x3f8011d7	1.0005444

business_tower.bin_proj.1.bias f4 [32]
0	0xbc17841c	-0.009247806
1	0xbae34b00	-0.0017341077
2	0xbb9e8d13	-0.0048385947
3	0xbb24d5ca	-0.0025151842
4	0x3bb75728	0.0055951066
5	0x39cb4dca	0.00038777135
6	0x3b303f83	0.0026893325
7	0xbbd12cab	-0.0063834987
8	0xbb02f2c6	-0.001998113
9	0xba2ebee4	-0.0006666018
10	0x3b7d0f6f	0.0038613935
11	0xbb47715b	-0.0030432555
12	0x3ba92f3d	0.005163102
13	0xbc117bee	-0.008879645
14	0xbb2862fe	-0.002569377
15	0xbb45926b	-0.0030147086
16	0xbb2d0c26	-0.0026404946
17	0xbc339593	-0.010960954
18	0xbba0d792	-0.0049085105
19	0xbb95ce50	-0.0045717135
20	0x3c7a1b8b	0.015265356
21	0xbc494cbf	-0.012286364
22	0xbc02bef7	-0.0079801
23	0x3b844417	0.0040364373
24	0xbb93a43d	-0.0045056627
25	0x3b98602c	0.0046501365
26	0x39e6ae9e	0.00043999118
27	0x3b245626	0.0025075763
28	0x3bc7b354	0.0060943756
29	0xbac75cb3	-0.0015210122
30	0xbc122f14	-0.008922357
31	0xbb1c01b1	-0.002380472

business_tower.transformer.layers.0.self_attn.in_proj_weight f4 [96, 32]
0	0x3e2fdda7	0.17174397
1	0xbe40c919	-0.18826713
2	0x3dc09851	0.09404052
3	0xbdee2444	-0.11628011
4	0x3e1f1b01	0.15537645
5	0xbe62deaa	-0.22155252
6	0x3d583599	0.05278549
7	0xbe232205	-0.15930946
8	0x3de61dfb	0.11236187
9	0x3cb02fd4	0.021507181
10	0x3e461114	0.19342452
11	0xbe213b74	-0.15745336
12	0x3df3cfc1	0.1190486
13	0xbe0cf6ab	-0.13765971
14	0xbdf1b5c0	-0.11802244
15	0x3d9eb64b	0.077496134
16	0xbd268592	-0.040654726
17	0xbe3f2b73	-0.18668918
18	0xbe52fa8b	-0.20603387
19	0xbd80ab8d	-0.06282721
20	0x3d2ba125	0.041901726
21	0x3e5235b0	0.20528293
22	0x3e069b1d	0.13145109
23	0xbc5d1cb5	-0.013495614
24	0xbe1fffde	-0.1562495
25	0xbe2bb7fc	-0.16769403
26	0x3e410bf4	0.18852216
27	0xbe146450	-0.14491391
28	0xbd3c71cb	-0.04600696
29	0xbe293ebf	-0.16527842
30	0xbe229dfc	-0.15880579
31	0x3d8fd04e	0.07022153
32	0xbd73c42d	-0.05951326
33	0x3c81453c	0.015780084
34	0x3c0d8624	0.008637939
35	0x3c1a5344	0.009419266
36	0xbd5bf0fa	-0.05369661
37	0xbc94e542	-0.018175725
38	0x3d9a19ef	0.07524478
39	0x3e287911	0.16452433
40	0x3e2c90ef	0.16852163
41	0xbe428b68	-0.18998492
42	0xbe37f07d	-0.17962833
43	0xbd06a103	-0.032868396
44	0xbcd1a6ff	-0.025592325
45	0x3ded4734	0.115858465
46	0x3e4fe2ca	0.20301357
47	0x3d2fdaef	0.0429334
48	0xbe264368	-0.16236651
49	0xbd1c78f9	-0.038201306
50	0x3e0297ea	0.12753263
51	0x3d97a34e	0.07404195
52	0xbe2fe406	-0.17176828
53	0x3c7710a1	0.015079648
54	0xbe672197	-0.22571407
55	0xbdcb0e3b	-0.099148236
56	0x3e08318c	0.1330015
57	0xbdad7060	-0.084686995
58	0x3e024476	0.12721428
59	0xbe462758	-0.19350946
60	0x3e364318	0.17799032
61	0x3dd87111	0.10568441
62	0x3e081a0d	0.13291188
63	0x3d9abb4b	0.075552545
64	0x3bf99e78	0.007617768
65	0xbdc9191b	-0.098192416
66	0xbe035875	-0.12826712
67	0xbe11c3ff	-0.14234923
68	0x3e4046fe	0.18777081
69	0xbd8adc28	-0.06780273
70	0x3cbffed6	0.023436945
71	0xbe5a2616	-0.21303591
72	0x3d85e6dc	0.065381736
73	0xbd75d4db	-0.060017448
74	0xbe3c141e	-0.18367049
75	0x3ce82cd7	0.028341694
76	0xbe417d47	-0.18895446
77	0xbc98a450	-0.018633038
78	0xbe323181	-0.17401697
79	0x3e155c3d	0.14585967
80	0xbe264fbc	-0.16241354
81	0x3d3452ce	0.04402428
82	0x3df93c9e	0.12169765
83	0xbe2eee64	-0.17083126
84	0x3e1d8637	0.1538323
85	0x3e346ab4	0.17618829
86	0xbdec58f6	-0.115404055
87	0x3ced1b62	0.028943721
88	0x3da3002f	0.079590194
89	0x3e2a8133	0.16650848
90	0x3e3315bd	0.17488761
91	0xbe27f093	-0.16400366
92	0xbe2eec9e	-0.1708245
93	0xbe45644e	-0.19276544
94	0xbdb2a85e	-0.0872352
95	0xbd897b97	-0.06713026
96	0xbd93ec83	-0.072228454
97	0x3e0f34cb	0.13984983
98	0xbe1d982f	-0.15390085
99	0xbe2f9b6f	-0.17149137
100	0xbe2ac799	-0.16677703
101	0xbdfdcd31	-0.12392653
102	0x3e55a4e7	0.20863687
103	0x3ca7253b	0.020403495
104	0xbd186aa0	-0.03721106
105	0xbd88d503	-0.06681254
106	0xbe265fef	-0.16247533
107	0xbd9148ac	-0.07093939
108	0x3de46db1	0.111537345
109	0x3e0ee911	0.13956095
110	0x3e1de974	0.15421087
111	0x3c62d597	0.013844869
112	0xbe015f49	-0.12634005
113	0xbdff3e46	-0.124630496
114	0x3e54acb5	0.20769008
115	0xbe3f1c2c	-0.1866309
116	0x3d42b182	0.047532566
117	0xbc9cd83f	-0.019146083
118	0x3e5566af	0.20839952
119	0x3e03dc79	0.12877072
120	0xbd6822a3	-0.056673657
121	0xbe325adc	-0.17417473
122	0x3ccd3c60	0.025053203
123	0xbe165077	-0.14679132
124	0xbc903d1a	-0.01760726
125	0x3d3cde7f	0.046110626
126	0x3dc82c73	0.09774103
127	0xbd61ccc5	-0.055126924
128	0xbe1e9130	-0.15485072
129	0xbe32af3b	-0.17449658
130	0xbe5ca129	-0.21545853
131	0x3d144204	0.03619577
132	0xbe0975c2	-0.13423827
133	0x3c86f64f	0.016474871
134	0xbdc90608	-0.098156035
135	0xbe12ce66	-0.14336547
136	0x3e1af295	0.151316
137	0x3df3fd77	0.11913579
138	0x3e0bcdeb	0.1365277
139	0x3e522fb8	0.20526016
140	0xbe1c70e5	-0.15277441
141	0xbdde5325	-0.10855702
142	0xbe18ab64	-0.1490913
143	0x3e1e3079	0.15448178
144	0x3e09e158	0.13464868
145	0x3e3dccbe	0.18535134
146	0xbe16c602	-0.14723971
147	0xbdfa6a87	-0.1222735
148	0x3e612870	0.21988082
149	0xbe2d1f26	-0.16906413
150	0xbe00a651	-0.12563445
151	0x3da8f27a	0.08249374
152	0xbe3b4c78	-0.1829089
153	0xbd940da5	-0.07229165
154	0x3dc14768	0.09437448
155	0x3e3e47b1	0.18582036
156	0xbca0febe	-0.01965272
157	0xbe3e3dba	-0.18578234
158	0x3df587aa	0.119887665
159	0x3e51bbda	0.20481816
160	0xbe27748f	-0.16353057
161	0x3b4b9643	0.0031064905
162	0xbe1f15d1	-0.15535666
163	0xbdcd0ebe	-0.100125775
164	0x3da7368b	0.081647
165	0x3df0f797	0.11765974
166	0x3ddc5ba5	0.10759667
167	0xbe5af85f	-0.21383809
168	0xbd46d0ca	-0.04853896
169	0x3dd75682	0.10514547
170	0xbd07ae30	-0.033125103
171	0xbd9c1834	-0.07621804
172	0xbdc6927d	-0.09695909
173	0x3e557db1	0.20848729
174	0xbe291795	-0.16512902
175	0xbe2574a6	-0.16157779
176	0x3e27bf27	0.16381513
177	0xbdff3fdc	-0.12463352
178	0x3e121530	0.14265895
179	0xbe02e7d3	-0.12783746
180	0xbc696e29	-0.014247456
181	0xbdd67d52	-0.10473122
182	0x3e45832c	0.1928832
183	0x3e26b5a3	0.16280226
184	0x3cdf1299	0.027230548
185	0xbbe474d6	-0.0069719357
186	0xbd8bc5bf	-0.068248264
187	0xbdd116d3	-0.102094315
188	0xbd9c73fa	-0.07639308
189	0x3d8e8fc2	0.069610134
190	0xbcf34a06	-0.029698383
191	0x3e055620	0.13021135
192	0x3d206128	0.039155155
193	0xbc17ef24	-0.009273324
194	0xbe0f1efd	-0.13976665
195	0x3dc24547	0.0948587
196	0xbe524b94	-0.20536643
197	0x3d17cdd0	0.037061512
198	0x3d87e2e3	0.06635072
199	0x3d4e800c	0.050415084
200	0x3e1da717	0.15395771
201	0x3d36c121	0.044617776
202	0xbd5c20f2	-0.053742357
203	0xbe0d36e0	-0.13790464
204	0xbe53faa3	-0.20701079
205	0x3de9f96b	0.11424526
206	0x3dff7e5b	0.12475272
207	0xbe243930	-0.1603744
208	0x3d8d0e8b	0.068875395
209	0xbd959a8a	-0.073048666
210	0x3e2d7887	0.16940509
211	0xbd87792d	-0.06614909
212	0x3e327958	0.17429101
213	0x3e222c3f	0.15837191
214	0x3de35c98	0.11101645
215	0x3e186341	0.14881612
216	0x3d7041a2	0.058656342
217	0x3d95c8cb	0.07313689
218	0xbe40b01f	-0.18817185
219	0xbd4aa978	-0.049478024
220	0xbc73d9d2	-0.014883475
221	0x3dd2f354	0.103003174
222	0xbdb2f576	-0.08738224
223	0x3dd3dc27	0.10344725
224	0x3e1de3fa	0.15418997
225	0x3daee9db	0.08540698
226	0x3dcd859b	0.10035249
227	0xbc94a9f7	-0.018147452
228	0x3de19170	0.11014068
229	0xbdb34926	-0.08754186
230	0x3e3a3240	0.18183231
231	0xbbe9ac4d	-0.0071311356
232	0xbc37bf93	-0.011215108
233	0xbe467003	-0.19378667
234	0x3e5386cf	0.20656894
235	0xbcc39cb3	-0.023878431
236	0x3e22214b	0.15833013
237	0xbe0924f5	-0.13393004
238	0xbe30a577	-0.1725062
239	0xbc889585	-0.016672859
240	0xbe291dde	-0.165153
241	0x3d4b8132	0.049683757
242	0xbaa5deef	-0.001265494
243	0xbda28160	-0.079348326
244	0x3e06b483	0.13154797
245	0x3e0f73c1	0.14009
246	0xbe400158	-0.18750513
247	0xbe2dcbff	-0.1697235
248	0x3e026b4d	0.12736244
249	0xbe0695a0	-0.13143015
250	0x3d20ad1c	0.03922759
251	0xbd6409bc	-0.055673346
252	0x3d5a55e0	0.053304553
253	0xbdec224a	-0.115299776
254	0x3b1b7cb5	0.0023725454
255	0xbd9a47a4	-0.075331956

business_tower.transformer.layers.0.self_attn.in_proj_bias f4 [96]
0	0xbcc86ee6	-0.024466943
1	0xbc9baa33	-0.019002056
2	0x3c88f100	0.01671648
3	0xb9eea606	-0.00045518595
4	0x3c13bc79	0.009017103
5	0x3c80a4f4	0.015703656
6	0xbb9e9884	-0.0048399586
7	0x3b81b174	0.0039579216
8	0xbaa2184c	-0.001236686
9	0x3bd06f4f	0.0063609253
10	0x3b5aa15d	0.003336034
11	0x3aa55e91	0.0012616684
12	0xbb2bad32	-0.0026195762
13	0x3aa5f5d4	0.0012661763
14	0xbc0e8291	-0.008698122
15	0xba9062a5	-0.0011015726
16	0xbbf32900	-0.007420659
17	0xbc045410	-0.008076683
18	0xbbe796ef	-0.0070675532
19	0xbb099949	-0.0020995906
20	0xbbed8b22	-0.007249252
21	0xb9b4159c	-0.00034348376
22	0x3c623d00	0.013808489
23	0x3c1e66dd	0.009668079
24	0x3c23036b	0.009949545
25	0x3a9e86ac	0.0012094579
26	0x3b9f2386	0.0048565296
27	0xbba37219	-0.0049879667
28	0x390c407f	0.00013375467
29	0xbbd5f76c	-0.006529739
30	0xbad0187f	-0.0015876441
31	0xbaa7fd79	-0.001281663
32	0x351dac74	5.873801e-07
33	0x351ba219	5.797788e-07
34	0xb4844c42	-2.46424e-07
35	0x35140d84	5.5153964e-07
36	0x356d5472	8.8412264e-07
37	0xb552c0f4	-7.851188e-07
38	0xb4c985a2	-3.7536398e-07
39	0x34cc01ed	3.7999362e-07
40	0xb6528ade	-3.137327e-06
41	0x34aa00e1	3.1665607e-07
42	0x33cff8da	9.6844545e-08
43	0x35da2c02	1.6255074e-06
44	0xb4f15c7f	-4.4957048e-07
45	0xb51203ff	-5.4395053e-07
46	0x35538c83	7.8808097e-07
47	0xb5a6540e	-1.2392427e-06
48	0xb59e32d1	-1.1786707e-06
49	0xb5d89fc8	-1.6139757e-06
50	0xb6465d3b	-2.9558566e-06
51	0x3558c764	8.075642e-07
52	0xb57307b1	-9.0535747e-07
53	0xb41917bc	-1.425787e-07
54	0xb606c051	-2.00795e-06
55	0x35413d0b	7.198693e-07
56	0x35a7c353	1.2499316e-06
57	0x357ff61d	9.5353045e-07
58	0x3340955e	4.4839332e-08
59	0xb50f20ec	-5.331956e-07
60	0x360e2697	2.1182111e-06
61	0x34cf47c0	3.860896e-07
62	0x34d100bf	3.8929826e-07
63	0xb53710ff	-6.8197545e-07
64	0xbba61d39	-0.0050694016
65	0xb8f69aea	-0.00011759049
66	0xb92a8851	-0.00016263245
67	0xbac54271	-0.0015049708
68	0x3bcf0f2e	0.006318948
69	0x3a0c3322	0.00053481956
70	0xbb4d416f	-0.003131952
71	0xbb87f34d	-0.0041488768
72	0xbadbcbcb	-0.0016769109
73	0x3acb232c	0.0015498153
74	0xbbd56357	-0.0065120864
75	0xbbae56cb	-0.005320405
76	0xbc54163a	-0.012944752
77	0xbbdc740e	-0.006727702
78	0x3b5ace6b	0.0033387195
79	0xbb0759c3	-0.0020652867
80	0xbafc684e	-0.001925716
81	0x3a8aa9b3	0.0010579139
82	0x3bbf4b6d	0.005837849
83	0xbaf5442d	-0.0018712335
84	0xba4d8e88	-0.0007841368
85	0xbb1341a5	-0.0022469547
86	0x3b891128	0.0041829534
87	0x3bcdb7ba	0.0062780054
88	0xbb9a095c	-0.0047008228
89	0x3aed9e60	0.0018128864
90	0xbae86731	-0.0017730949
91	0x3b97021d	0.004608406
92	0x3bc85a8d	0.00611431
93	0x39343545	0.00017185982
94	0x3b1f0237	0.0024262795
95	0xbafeef53	-0.0019449986

business_tower.transformer.layers.0.self_attn.out_proj.weight f4 [32, 32]
0	0xbdbc9d30	-0.09209669
1	0x3e274daf	0.16338228
2	0x3e26b23e	0.16278931
3	0x3bc6da8c	0.0060685333
4	0xbe0fdaa8	-0.14048254
5	0xbd89dbd2	-0.067313805
6	0xbd27e1eb	-0.040986937
7	0xbbe48374	-0.0069736782
8	0xbe231ccc	-0.15928954
9	0x3cde92a5	0.027169535
10	0xbd839c33	-0.06426277
11	0xbd1dba8f	-0.038507994
12	0xbdb0b66f	-0.086285464
13	0xbcfadd1a	-0.030623008
14	0xbe330fb4	-0.17486459
15	0xbdc35938	-0.095385015
16	0x3c946879	0.018116223
17	0x3df01d1a	0.11724301
18	0x3e20b323	0.15693335
19	0xbe06746e	-0.13130352
20	0x3d92ae22	0.071621194
21	0xbdc15029	-0.094391175
22	0xbe046395	-0.12928613
23	0xbc8d859b	-0.017275622
24	0xbdce281a	-0.100662425
25	0xbe0e4043	-0.13891701
26	0xbe1e1aed	-0.15439959
27	0xbdf8eeaf	-0.121549
28	0x3e163f81	0.14672662
29	0x3dcd655f	0.100291006
30	0xbd89f9dd	-0.06737111
31	0xbdf6cbae	-0.120505676
32	0xbe0967a7	-0.13418446
33	0xbdf639c4	-0.12022737
34	0xbda0c1b6	-0.078494474
35	0x3dd21775	0.1025838
36	0x3d59c54d	0.053166676
37	0xbd691d12	-0.05691249
38	0x3de86530	0.11347425
39	0xbdcb8f12	-0.09939398
40	0xbe0a6993	-0.13516836
41	0x3d484149	0.048890386
42	0xbddd0a3f	-0.1079297
43	0x3d369458	0.044575065
44	0x3e157c77	0.14598261
45	0xbdbcd322	-0.09219958
46	0xbdfccbb6	-0.12343542
47	0x3d913e38	0.070919454
48	0xbe2c8a27	-0.16849576
49	0x3e14fc14	0.14549285
50	0xbd962b69	-0.073324986
51	0x3db38263	0.08765104
52	0xbe0c4d09	-0.13701262
53	0xbdf90f6c	-0.121611446
54	0x3c0962ab	0.008385341
55	0x3d8aa618	0.06769961
56	0x3e0fa4df	0.14027737
57	0x3e0ad816	0.13558993
58	0xbcae081a	-0.021244098
59	0xbc9ca92f	-0.019123642
60	0x3d00c274	0.031435445
61	0xbd17562f	-0.036947425
62	0x3aa660ce	0.0012693645
63	0xbe20e35d	-0.15711732
64	0xbe11be99	-0.14232863
65	0x3e0a9179	0.13532056
66	0xbddcd222	-0.10782267
67	0x3e18361f	0.14864396
68	0x3c9924e4	0.018694349
69	0x3d0cfc05	0.034420032
70	0x3e1f555e	0.15559909
71	0xbdf4d656	-0.11954944
72	0xbcabe1a0	-0.02098161
73	0x3cd7a782	0.026324991
74	0x3d6a43d4	0.057193592
75	0xbe3abec9	-0.18236841
76	0x3d8d1ffd	0.06890867
77	0xbdc1c31c	-0.09461042
78	0x3cdbc81c	0.026828818
79	0x3de12b00	0.1099453
80	0xbcab4981	-0.020909073
81	0xbc2151b5	-0.009846141
82	0xbc5b19cb	-0.013372849
83	0x3e17c966	0.14822921
84	0x3dbe0487	0.09278207
85	0x3d09621a	0.033540823
86	0xbde137a9	-0.109969445
87	0xbde3c623	-0.11121776
88	0x3e0efc70	0.13963485
89	0x3df3671c	0.11884901
90	0x3de496db	0.11161586
91	0xbe1310a5	-0.14361818
92	0x3e1323a7	0.14369069
93	0xbcbe28e0	-0.02321285
94	0x3e04b89e	0.12961051
95	0x3e158362	0.146009
96	0x3ccf4760	0.025302589
97	0xbd89a837	-0.067215376
98	0x3e2dfe0b	0.16991441
99	0xbdbd0d64	-0.0923107
100	0x3de499f5	0.111621775
101	0xbe323751	-0.17403914
102	0xbd408b17	-0.047007646
103	0xbe1ba2cf	-0.15198825
104	0xbd9c24d2	-0.076242104
105	0x3d927c57	0.07152622
106	0xbe03f5c3	-0.1288672
107	0xbe18c926	-0.14920482
108	0x3df86ab2	0.121297255
109	0x3dafd6d4	0.08585897
110	0x3b262085	0.0025348973
111	0xbdf1d4ae	-0.118081436
112	0xbd2cf638	-0.042227
113	0xbd5c40fd	-0.053772915
114	0x3dd4030a	0.10352142
115	0xbd825f02	-0.063657776
116	0xbd3ba378	-0.045810193
117	0xbe09d2cb	-0.13459317
118	0xbda86acf	-0.08223497
119	0x3db9415e	0.09045671
120	0x3df2bfd8	0.118529975
121	0x3c9a5146	0.018837582
122	0xbd70c343	-0.058779966
123	0x3e351a20	0.17685747
124	0x3d01a036	0.03164693
125	0xbd82f3aa	-0.063941315
126	0xbd869370	-0.0657109
127	0xbcbeaaba	-0.023274768
128	0x3da1808c	0.078858465
129	0x3d96cae9	0.07362921
130	0x3e03123e	0.12799928
131	0x3c1ebc9e	0.0096885245
132	0x3e1a5c69	0.15074314
133	0xbd796cdf	-0.060894843
134	0xbdb27016	-0.08712785
135	0xbd95d7f4	-0.073165804
136	0xbe1daae4	-0.15397221
137	0xbdf139e6	-0.117786214
138	0xbe2d5627	-0.16927396
139	0xbc8cce74	-0.017188288
140	0x3c5982d1	0.013275818
141	0xbd1e5825	-0.03865828
142	0xbe05f193	-0.13080435
143	0x3e26271f	0.16225861
144	0xbd91a3a7	-0.07111292
145	0x3d9635a5	0.07334451
146	0x3e00d578	0.12581432
147	0xbdd7d9d4	-0.10539594
148	0xbcfbf8fb	-0.030758372
149	0x3deaad4c	0.11458835
150	0x3e2a3ac5	0.16623981
151	0xbd07a39a	-0.033115007
152	0x3df9b675	0.12193004
153	0xbe0599cb	-0.13046949
154	0xbddca4ef	-0.10773646
155	0x3e0cd1a5	0.13751848
156	0xbb98b4e7	-0.004660237
157	0x3e2fd193	0.1716979
158	0x3c8fc967	0.01755209
159	0xbd818e7b	-0.06326004
160	0x3e2cb228	0.16864836
161	0x3e127d4b	0.14305608
162	0x3bed1c71	0.0072360565
163	0xbdfc110b	-0.12307938
164	0xbc2d5846	-0.010580128
165	0xbdaf7013	-0.08566298
166	0x3df87cda	0.121331885
167	0x3c7f079f	0.015565782
168	0x3cf37bb3	0.02972207
169	0x3ded8b0b	0.11598786
170	0x3d803a0d	0.06261072
171	0xbde45215	-0.111484684
172	0x3e0e0bd6	0.13871703
173	0x3dc3b078	0.09555143
174	0xbdce57e5	-0.10075358
175	0x3e04bacd	0.12961884
176	0x3d618df6	0.055067025
177	0xbcf88319	-0.03033595
178	0xbdfd43fc	-0.123664826
179	0xbcf8181f	-0.03028494
180	0xbe2addbc	-0.16686147
181	0x3db4a2fa	0.08820148
182	0x3dffc33f	0.12488412
183	0xbd1b0145	-0.037843008
184	0x3e2aac21	0.16667224
185	0xbda32783	-0.07966521
186	0x3cbcffb3	0.023071146
187	0xbdef83fc	-0.11695096
188	0xbc70bd58	-0.014693581
189	0x3d88d9c2	0.06682159
190	0x3d933d57	0.07189434
191	0xbc21d072	-0.009876357
192	0xbdc35194	-0.09537044
193	0x3deb5c6e	0.11492239
194	0x3ddfc38c	0.109259695
195	0x3cab0065	0.020874212
196	0xbda5ceac	-0.0809606
197	0x3d2ddaf9	0.042445157
198	0xbc81e2bf	-0.015855191
199	0x3e2f69ee	0.17130253
200	0x3d0194a1	0.031635884
201	0x3caad307	0.020852579
202	0x3c426899	0.011865758
203	0x3dac0b9f	0.08400654
204	0x3ab4cce3	0.0013793971
205	0x3e14a175	0.14514716
206	0x3db919cc	0.090381235
207	0xbe0f3b88	-0.13987553
208	0xbbac366c	-0.005255511
209	0xbe1fa558	-0.15590417
210	0xbe03f27f	-0.12885474
211	0x3d311c3d	0.04323982
212	0x3d22bfa1	0.039733533
213	0xbc50b613	-0.012738722
214	0x3e21b7c4	0.15792757
215	0xbd9bc851	-0.07606567
216	0xbd914cef	-0.07094752
217	0xbce379c8	-0.02776803
218	0x3b2f1d32	0.0026720283
219	0xbc8ffaae	-0.017575588
220	0x3e24722f	0.16059183
221	0xbdb19dbf	-0.08672666
222	0xbdbc5c01	-0.09197236
223	0x3c6bc493	0.014390129
224	0x3e0f9eba	0.14025393
225	0x3d890224	0.066898614
226	0x3dca449e	0.09876369
227	0x3d2203b5	0.039554317
228	0x3e17d50c	0.14827365
229	0x3dc97d2e	0.09838329
230	0x3e0f56bb	0.13997929
231	0xbd596917	-0.053078737
232	0xbe12276f	-0.14272855
233	0xbdb25578	-0.08707708
234	0x3d676891	0.056496207
235	0x3df3d6e0	0.119062185
236	0xbd856801	-0.06513978
237	0x3e1c75e0	0.1527934
238	0x3d2ecf38	0.042678088
239	0x38ae1d86	8.302466e-05
240	0x3c251393	0.010075468
241	0xbcafc98d	-0.021458412
242	0x3e1b9f34	0.1519745
243	0xbb19ec54	-0.002348681
244	0x3de0ca2b	0.109760605
245	0xbe181bb2	-0.14854315
246	0xbda8f34e	-0.08249532
247	0xbb678042	-0.003532425
248	0x3e07210a	0.13196197
249	0x3da784a1	0.08179594
250	0x3d411b8b	0.047145408
251	0xbe39ea9a	-0.181559
252	0x3b934207	0.004493955
253	0xbde484f0	-0.11158168
254	0xbe1a90c0	-0.1509428
255	0x3c6a605b	0.0143051995

business_tower.transformer.layers.0.self_attn.out_proj.bias f4 [32]
0	0x3ae83ada	0.0017717734
1	0xbb3515d5	-0.002763142
2	0x3a5af2c9	0.0008352218
3	0xbb8e8e65	-0.004350471
4	0x3be89f21	0.007099048
5	0xbb9cad0a	-0.00478137
6	0x3ade331d	0.0016952489
7	0xbb90bd4f	-0.0044170986
8	0xba624429	-0.00086313725
9	0xbb3e62c7	-0.0029050575
10	0x3a06f9d7	0.00051489234
11	0xb91eae92	-0.00015133087
12	0x3bc29c28	0.0059390254
13	0x3a296c55	0.0006462981
14	0x3ac6b6e5	0.0015160708
15	0x3b8f3851	0.004370727
16	0x3affdb0e	0.001952024
17	0xbbe39dd6	-0.0069463057
18	0xbb9cd7e6	-0.0047864793
19	0xbb401409	-0.0029308817
20	0x3bed5933	0.0072432994
21	0xbb9d0780	-0.004792154
22	0x3b9ae475	0.004726941
23	0xba568b8b	-0.00081842457
24	0xbb649c01	-0.0034883025
25	0x3bee4004	0.007270815
26	0xbb5634bf	-0.0032685248
27	0xbbe1274a	-0.0068711387
28	0x3c03afae	0.008037491
29	0x3b4041f7	0.0029336193
30	0xbb9f1414	-0.0048546884
31	0x3af0d85c	0.0018375027
